ir_version: 8
producer_name: "tf2onnx+onnx_optimizer"
producer_version: "1.9.3+0.10"
model_version: 0
graph {
  name: "tf2onnx"
  node {
    input: "input_1:0"
    output: "conv2d_1/BiasAdd__6:0"
    name: "conv2d_1/BiasAdd__6"
    op_type: "Transpose"
    attribute {
      name: "perm"
      ints: 0
      ints: 3
      ints: 1
      ints: 2
      type: INTS
    }
  }
  node {
    input: "conv2d_1/BiasAdd__6:0"
    input: "conv2d_1/kernel/read:0"
    input: "conv2d_1/bias/read:0"
    output: "conv2d_1/BiasAdd:0"
    name: "conv2d_1/BiasAdd"
    op_type: "Conv"
    attribute {
      name: "dilations"
      ints: 1
      ints: 1
      type: INTS
    }
    attribute {
      name: "strides"
      ints: 2
      ints: 2
      type: INTS
    }
    attribute {
      name: "kernel_shape"
      ints: 3
      ints: 3
      type: INTS
    }
    attribute {
      name: "auto_pad"
      s: "SAME_UPPER"
      type: STRING
    }
    attribute {
      name: "group"
      i: 1
      type: INT
    }
    domain: ""
  }
  node {
    input: "conv2d_1/BiasAdd:0"
    output: "conv2d_1/Relu:0"
    name: "conv2d_1/Relu"
    op_type: "Relu"
  }
  node {
    input: "conv2d_1/Relu:0"
    input: "conv2d_2/kernel/read:0"
    input: "conv2d_2/bias/read:0"
    output: "conv2d_2/BiasAdd:0"
    name: "conv2d_2/BiasAdd"
    op_type: "Conv"
    attribute {
      name: "dilations"
      ints: 1
      ints: 1
      type: INTS
    }
    attribute {
      name: "strides"
      ints: 2
      ints: 2
      type: INTS
    }
    attribute {
      name: "kernel_shape"
      ints: 3
      ints: 3
      type: INTS
    }
    attribute {
      name: "auto_pad"
      s: "SAME_UPPER"
      type: STRING
    }
    attribute {
      name: "group"
      i: 1
      type: INT
    }
    domain: ""
  }
  node {
    input: "conv2d_2/BiasAdd:0"
    output: "conv2d_2/Relu:0"
    name: "conv2d_2/Relu"
    op_type: "Relu"
  }
  node {
    input: "conv2d_2/Relu:0"
    input: "conv2d_3/kernel/read:0"
    input: "conv2d_3/bias/read:0"
    output: "conv2d_3/BiasAdd:0"
    name: "conv2d_3/BiasAdd"
    op_type: "Conv"
    attribute {
      name: "dilations"
      ints: 1
      ints: 1
      type: INTS
    }
    attribute {
      name: "strides"
      ints: 2
      ints: 2
      type: INTS
    }
    attribute {
      name: "kernel_shape"
      ints: 3
      ints: 3
      type: INTS
    }
    attribute {
      name: "auto_pad"
      s: "SAME_UPPER"
      type: STRING
    }
    attribute {
      name: "group"
      i: 1
      type: INT
    }
    domain: ""
  }
  node {
    input: "conv2d_3/BiasAdd:0"
    output: "conv2d_3/Relu:0"
    name: "conv2d_3/Relu"
    op_type: "Relu"
  }
  node {
    input: "conv2d_3/Relu:0"
    input: "conv2d_4/kernel/read:0"
    input: "conv2d_4/bias/read:0"
    output: "conv2d_4/BiasAdd:0"
    name: "conv2d_4/BiasAdd"
    op_type: "Conv"
    attribute {
      name: "dilations"
      ints: 1
      ints: 1
      type: INTS
    }
    attribute {
      name: "strides"
      ints: 2
      ints: 2
      type: INTS
    }
    attribute {
      name: "kernel_shape"
      ints: 3
      ints: 3
      type: INTS
    }
    attribute {
      name: "auto_pad"
      s: "SAME_UPPER"
      type: STRING
    }
    attribute {
      name: "group"
      i: 1
      type: INT
    }
    domain: ""
  }
  node {
    input: "conv2d_4/BiasAdd:0"
    output: "conv2d_4/Relu:0"
    name: "conv2d_4/Relu"
    op_type: "Relu"
  }
  node {
    input: "conv2d_4/Relu:0"
    input: "conv2d_5/kernel/read:0"
    input: "conv2d_5/bias/read:0"
    output: "conv2d_5/BiasAdd:0"
    name: "conv2d_5/BiasAdd"
    op_type: "Conv"
    attribute {
      name: "dilations"
      ints: 1
      ints: 1
      type: INTS
    }
    attribute {
      name: "strides"
      ints: 2
      ints: 2
      type: INTS
    }
    attribute {
      name: "kernel_shape"
      ints: 3
      ints: 3
      type: INTS
    }
    attribute {
      name: "auto_pad"
      s: "SAME_UPPER"
      type: STRING
    }
    attribute {
      name: "group"
      i: 1
      type: INT
    }
    domain: ""
  }
  node {
    input: "conv2d_5/BiasAdd:0"
    output: "conv2d_5/Relu:0"
    name: "conv2d_5/Relu"
    op_type: "Relu"
  }
  node {
    input: "conv2d_5/Relu:0"
    input: "conv2d_6/kernel/read:0"
    input: "conv2d_6/bias/read:0"
    output: "conv2d_6/BiasAdd:0"
    name: "conv2d_6/BiasAdd"
    op_type: "Conv"
    attribute {
      name: "dilations"
      ints: 1
      ints: 1
      type: INTS
    }
    attribute {
      name: "strides"
      ints: 2
      ints: 2
      type: INTS
    }
    attribute {
      name: "kernel_shape"
      ints: 3
      ints: 3
      type: INTS
    }
    attribute {
      name: "auto_pad"
      s: "SAME_UPPER"
      type: STRING
    }
    attribute {
      name: "group"
      i: 1
      type: INT
    }
    domain: ""
  }
  node {
    input: "conv2d_6/BiasAdd:0"
    output: "conv2d_6/Relu:0"
    name: "conv2d_6/Relu"
    op_type: "Relu"
  }
  node {
    input: "conv2d_6/Relu:0"
    input: "conv2d_7/kernel/read:0"
    input: "conv2d_7/bias/read:0"
    output: "conv2d_7/BiasAdd:0"
    name: "conv2d_7/BiasAdd"
    op_type: "Conv"
    attribute {
      name: "dilations"
      ints: 1
      ints: 1
      type: INTS
    }
    attribute {
      name: "strides"
      ints: 2
      ints: 2
      type: INTS
    }
    attribute {
      name: "kernel_shape"
      ints: 3
      ints: 3
      type: INTS
    }
    attribute {
      name: "auto_pad"
      s: "SAME_UPPER"
      type: STRING
    }
    attribute {
      name: "group"
      i: 1
      type: INT
    }
    domain: ""
  }
  node {
    input: "conv2d_7/BiasAdd:0"
    output: "conv2d_7/Relu:0"
    name: "conv2d_7/Relu"
    op_type: "Relu"
  }
  node {
    input: "conv2d_7/Relu:0"
    output: "Shape__6251:0"
    name: "Shape__6251"
    op_type: "Shape"
    domain: ""
  }
  node {
    input: "Shape__6251:0"
    input: "Const__7261"
    output: "up_sampling2d_1/Shape:0"
    name: "Gather__6256"
    op_type: "Gather"
    domain: ""
  }
  node {
    input: "Shape__6251:0"
    input: "zero__2713"
    input: "const_ends__2332"
    output: "Slice__78:0"
    name: "Slice__78"
    op_type: "Slice"
    domain: ""
  }
  node {
    input: "up_sampling2d_1/Shape:0"
    output: "up_sampling2d_1/Shape__62:0"
    name: "up_sampling2d_1/Shape__62"
    op_type: "Cast"
    attribute {
      name: "to"
      i: 6
      type: INT
    }
  }
  node {
    input: "up_sampling2d_1/Shape__62:0"
    input: "const_ends__2170"
    input: "const_ends__573"
    input: "zero__2713"
    output: "up_sampling2d_1/strided_slice:0"
    name: "up_sampling2d_1/strided_slice"
    op_type: "Slice"
    domain: ""
  }
  node {
    input: "up_sampling2d_1/strided_slice:0"
    input: "conv2d_62/convolution/dilation_rate:0"
    output: "up_sampling2d_1/mul:0"
    name: "up_sampling2d_1/mul"
    op_type: "Mul"
  }
  node {
    input: "up_sampling2d_1/mul:0"
    output: "Cast__79:0"
    name: "Cast__79"
    op_type: "Cast"
    attribute {
      name: "to"
      i: 7
      type: INT
    }
    domain: ""
  }
  node {
    input: "Slice__78:0"
    input: "Cast__79:0"
    output: "Concat__80:0"
    name: "Concat__80"
    op_type: "Concat"
    attribute {
      name: "axis"
      i: 0
      type: INT
    }
    domain: ""
  }
  node {
    input: "conv2d_7/Relu:0"
    input: "const_empty_float__131"
    input: "const_empty_float__131"
    input: "Concat__80:0"
    output: "Resize__81:0"
    name: "Resize__81"
    op_type: "Resize"
    attribute {
      name: "coordinate_transformation_mode"
      s: "asymmetric"
      type: STRING
    }
    attribute {
      name: "exclude_outside"
      i: 0
      type: INT
    }
    attribute {
      name: "mode"
      s: "nearest"
      type: STRING
    }
    attribute {
      name: "nearest_mode"
      s: "floor"
      type: STRING
    }
    domain: ""
  }
  node {
    input: "Resize__81:0"
    input: "conv2d_8/kernel/read:0"
    input: "conv2d_8/bias/read:0"
    output: "conv2d_8/BiasAdd:0"
    name: "conv2d_8/BiasAdd"
    op_type: "Conv"
    attribute {
      name: "dilations"
      ints: 1
      ints: 1
      type: INTS
    }
    attribute {
      name: "strides"
      ints: 1
      ints: 1
      type: INTS
    }
    attribute {
      name: "kernel_shape"
      ints: 3
      ints: 3
      type: INTS
    }
    attribute {
      name: "auto_pad"
      s: "SAME_UPPER"
      type: STRING
    }
    attribute {
      name: "group"
      i: 1
      type: INT
    }
    domain: ""
  }
  node {
    input: "conv2d_8/BiasAdd:0"
    output: "conv2d_8/Relu:0"
    name: "conv2d_8/Relu"
    op_type: "Relu"
  }
  node {
    input: "conv2d_8/Relu:0"
    input: "conv2d_6/Relu:0"
    output: "concatenate_1/concat:0"
    name: "concatenate_1/concat"
    op_type: "Concat"
    attribute {
      name: "axis"
      i: 1
      type: INT
    }
  }
  node {
    input: "concatenate_1/concat:0"
    output: "Shape__105:0"
    name: "Shape__105"
    op_type: "Shape"
    domain: ""
  }
  node {
    input: "Shape__105:0"
    input: "Const__7261"
    output: "up_sampling2d_2/Shape:0"
    name: "Gather__6262"
    op_type: "Gather"
    domain: ""
  }
  node {
    input: "Shape__105:0"
    input: "zero__2713"
    input: "const_ends__2332"
    output: "Slice__109:0"
    name: "Slice__109"
    op_type: "Slice"
    domain: ""
  }
  node {
    input: "up_sampling2d_2/Shape:0"
    output: "up_sampling2d_2/Shape__93:0"
    name: "up_sampling2d_2/Shape__93"
    op_type: "Cast"
    attribute {
      name: "to"
      i: 6
      type: INT
    }
  }
  node {
    input: "up_sampling2d_2/Shape__93:0"
    input: "const_ends__2170"
    input: "const_ends__573"
    input: "zero__2713"
    output: "up_sampling2d_2/strided_slice:0"
    name: "up_sampling2d_2/strided_slice"
    op_type: "Slice"
    domain: ""
  }
  node {
    input: "up_sampling2d_2/strided_slice:0"
    input: "conv2d_62/convolution/dilation_rate:0"
    output: "up_sampling2d_2/mul:0"
    name: "up_sampling2d_2/mul"
    op_type: "Mul"
  }
  node {
    input: "up_sampling2d_2/mul:0"
    output: "Cast__110:0"
    name: "Cast__110"
    op_type: "Cast"
    attribute {
      name: "to"
      i: 7
      type: INT
    }
    domain: ""
  }
  node {
    input: "Slice__109:0"
    input: "Cast__110:0"
    output: "Concat__111:0"
    name: "Concat__111"
    op_type: "Concat"
    attribute {
      name: "axis"
      i: 0
      type: INT
    }
    domain: ""
  }
  node {
    input: "concatenate_1/concat:0"
    input: "const_empty_float__131"
    input: "const_empty_float__131"
    input: "Concat__111:0"
    output: "Resize__112:0"
    name: "Resize__112"
    op_type: "Resize"
    attribute {
      name: "coordinate_transformation_mode"
      s: "asymmetric"
      type: STRING
    }
    attribute {
      name: "exclude_outside"
      i: 0
      type: INT
    }
    attribute {
      name: "mode"
      s: "nearest"
      type: STRING
    }
    attribute {
      name: "nearest_mode"
      s: "floor"
      type: STRING
    }
    domain: ""
  }
  node {
    input: "Resize__112:0"
    input: "conv2d_9/kernel/read:0"
    input: "conv2d_9/bias/read:0"
    output: "conv2d_9/BiasAdd:0"
    name: "conv2d_9/BiasAdd"
    op_type: "Conv"
    attribute {
      name: "dilations"
      ints: 1
      ints: 1
      type: INTS
    }
    attribute {
      name: "strides"
      ints: 1
      ints: 1
      type: INTS
    }
    attribute {
      name: "kernel_shape"
      ints: 3
      ints: 3
      type: INTS
    }
    attribute {
      name: "auto_pad"
      s: "SAME_UPPER"
      type: STRING
    }
    attribute {
      name: "group"
      i: 1
      type: INT
    }
    domain: ""
  }
  node {
    input: "conv2d_9/BiasAdd:0"
    output: "conv2d_9/Relu:0"
    name: "conv2d_9/Relu"
    op_type: "Relu"
  }
  node {
    input: "conv2d_9/Relu:0"
    input: "conv2d_5/Relu:0"
    output: "concatenate_2/concat:0"
    name: "concatenate_2/concat"
    op_type: "Concat"
    attribute {
      name: "axis"
      i: 1
      type: INT
    }
  }
  node {
    input: "concatenate_2/concat:0"
    output: "Shape__136:0"
    name: "Shape__136"
    op_type: "Shape"
    domain: ""
  }
  node {
    input: "Shape__136:0"
    input: "Const__7261"
    output: "up_sampling2d_3/Shape:0"
    name: "Gather__6268"
    op_type: "Gather"
    domain: ""
  }
  node {
    input: "Shape__136:0"
    input: "zero__2713"
    input: "const_ends__2332"
    output: "Slice__140:0"
    name: "Slice__140"
    op_type: "Slice"
    domain: ""
  }
  node {
    input: "up_sampling2d_3/Shape:0"
    output: "up_sampling2d_3/Shape__124:0"
    name: "up_sampling2d_3/Shape__124"
    op_type: "Cast"
    attribute {
      name: "to"
      i: 6
      type: INT
    }
  }
  node {
    input: "up_sampling2d_3/Shape__124:0"
    input: "const_ends__2170"
    input: "const_ends__573"
    input: "zero__2713"
    output: "up_sampling2d_3/strided_slice:0"
    name: "up_sampling2d_3/strided_slice"
    op_type: "Slice"
    domain: ""
  }
  node {
    input: "up_sampling2d_3/strided_slice:0"
    input: "conv2d_62/convolution/dilation_rate:0"
    output: "up_sampling2d_3/mul:0"
    name: "up_sampling2d_3/mul"
    op_type: "Mul"
  }
  node {
    input: "up_sampling2d_3/mul:0"
    output: "Cast__141:0"
    name: "Cast__141"
    op_type: "Cast"
    attribute {
      name: "to"
      i: 7
      type: INT
    }
    domain: ""
  }
  node {
    input: "Slice__140:0"
    input: "Cast__141:0"
    output: "Concat__142:0"
    name: "Concat__142"
    op_type: "Concat"
    attribute {
      name: "axis"
      i: 0
      type: INT
    }
    domain: ""
  }
  node {
    input: "concatenate_2/concat:0"
    input: "const_empty_float__131"
    input: "const_empty_float__131"
    input: "Concat__142:0"
    output: "Resize__143:0"
    name: "Resize__143"
    op_type: "Resize"
    attribute {
      name: "coordinate_transformation_mode"
      s: "asymmetric"
      type: STRING
    }
    attribute {
      name: "exclude_outside"
      i: 0
      type: INT
    }
    attribute {
      name: "mode"
      s: "nearest"
      type: STRING
    }
    attribute {
      name: "nearest_mode"
      s: "floor"
      type: STRING
    }
    domain: ""
  }
  node {
    input: "Resize__143:0"
    input: "conv2d_10/kernel/read:0"
    input: "conv2d_10/bias/read:0"
    output: "conv2d_10/BiasAdd:0"
    name: "conv2d_10/BiasAdd"
    op_type: "Conv"
    attribute {
      name: "dilations"
      ints: 1
      ints: 1
      type: INTS
    }
    attribute {
      name: "strides"
      ints: 1
      ints: 1
      type: INTS
    }
    attribute {
      name: "kernel_shape"
      ints: 3
      ints: 3
      type: INTS
    }
    attribute {
      name: "auto_pad"
      s: "SAME_UPPER"
      type: STRING
    }
    attribute {
      name: "group"
      i: 1
      type: INT
    }
    domain: ""
  }
  node {
    input: "conv2d_10/BiasAdd:0"
    output: "conv2d_10/Relu:0"
    name: "conv2d_10/Relu"
    op_type: "Relu"
  }
  node {
    input: "conv2d_10/Relu:0"
    input: "conv2d_4/Relu:0"
    output: "concatenate_3/concat:0"
    name: "concatenate_3/concat"
    op_type: "Concat"
    attribute {
      name: "axis"
      i: 1
      type: INT
    }
  }
  node {
    input: "concatenate_3/concat:0"
    output: "Shape__6269:0"
    name: "Shape__6269"
    op_type: "Shape"
    domain: ""
  }
  node {
    input: "Shape__6269:0"
    input: "Const__7261"
    output: "up_sampling2d_4/Shape:0"
    name: "Gather__6274"
    op_type: "Gather"
    domain: ""
  }
  node {
    input: "Shape__6269:0"
    input: "zero__2713"
    input: "const_ends__2332"
    output: "Slice__171:0"
    name: "Slice__171"
    op_type: "Slice"
    domain: ""
  }
  node {
    input: "up_sampling2d_4/Shape:0"
    output: "up_sampling2d_4/Shape__155:0"
    name: "up_sampling2d_4/Shape__155"
    op_type: "Cast"
    attribute {
      name: "to"
      i: 6
      type: INT
    }
  }
  node {
    input: "up_sampling2d_4/Shape__155:0"
    input: "const_ends__2170"
    input: "const_ends__573"
    input: "zero__2713"
    output: "up_sampling2d_4/strided_slice:0"
    name: "up_sampling2d_4/strided_slice"
    op_type: "Slice"
    domain: ""
  }
  node {
    input: "up_sampling2d_4/strided_slice:0"
    input: "conv2d_62/convolution/dilation_rate:0"
    output: "up_sampling2d_4/mul:0"
    name: "up_sampling2d_4/mul"
    op_type: "Mul"
  }
  node {
    input: "up_sampling2d_4/mul:0"
    output: "Cast__172:0"
    name: "Cast__172"
    op_type: "Cast"
    attribute {
      name: "to"
      i: 7
      type: INT
    }
    domain: ""
  }
  node {
    input: "Slice__171:0"
    input: "Cast__172:0"
    output: "Concat__173:0"
    name: "Concat__173"
    op_type: "Concat"
    attribute {
      name: "axis"
      i: 0
      type: INT
    }
    domain: ""
  }
  node {
    input: "concatenate_3/concat:0"
    input: "const_empty_float__131"
    input: "const_empty_float__131"
    input: "Concat__173:0"
    output: "Resize__174:0"
    name: "Resize__174"
    op_type: "Resize"
    attribute {
      name: "coordinate_transformation_mode"
      s: "asymmetric"
      type: STRING
    }
    attribute {
      name: "exclude_outside"
      i: 0
      type: INT
    }
    attribute {
      name: "mode"
      s: "nearest"
      type: STRING
    }
    attribute {
      name: "nearest_mode"
      s: "floor"
      type: STRING
    }
    domain: ""
  }
  node {
    input: "Resize__174:0"
    input: "conv2d_11/kernel/read:0"
    input: "conv2d_11/bias/read:0"
    output: "conv2d_11/BiasAdd:0"
    name: "conv2d_11/BiasAdd"
    op_type: "Conv"
    attribute {
      name: "dilations"
      ints: 1
      ints: 1
      type: INTS
    }
    attribute {
      name: "strides"
      ints: 1
      ints: 1
      type: INTS
    }
    attribute {
      name: "kernel_shape"
      ints: 3
      ints: 3
      type: INTS
    }
    attribute {
      name: "auto_pad"
      s: "SAME_UPPER"
      type: STRING
    }
    attribute {
      name: "group"
      i: 1
      type: INT
    }
    domain: ""
  }
  node {
    input: "conv2d_11/BiasAdd:0"
    output: "conv2d_11/Relu:0"
    name: "conv2d_11/Relu"
    op_type: "Relu"
  }
  node {
    input: "conv2d_11/Relu:0"
    input: "conv2d_3/Relu:0"
    output: "concatenate_4/concat:0"
    name: "concatenate_4/concat"
    op_type: "Concat"
    attribute {
      name: "axis"
      i: 1
      type: INT
    }
  }
  node {
    input: "concatenate_4/concat:0"
    output: "Shape__6275:0"
    name: "Shape__6275"
    op_type: "Shape"
    domain: ""
  }
  node {
    input: "Shape__6275:0"
    input: "Const__7261"
    output: "up_sampling2d_5/Shape:0"
    name: "Gather__6280"
    op_type: "Gather"
    domain: ""
  }
  node {
    input: "Shape__6275:0"
    input: "zero__2713"
    input: "const_ends__2332"
    output: "Slice__202:0"
    name: "Slice__202"
    op_type: "Slice"
    domain: ""
  }
  node {
    input: "up_sampling2d_5/Shape:0"
    output: "up_sampling2d_5/Shape__186:0"
    name: "up_sampling2d_5/Shape__186"
    op_type: "Cast"
    attribute {
      name: "to"
      i: 6
      type: INT
    }
  }
  node {
    input: "up_sampling2d_5/Shape__186:0"
    input: "const_ends__2170"
    input: "const_ends__573"
    input: "zero__2713"
    output: "up_sampling2d_5/strided_slice:0"
    name: "up_sampling2d_5/strided_slice"
    op_type: "Slice"
    domain: ""
  }
  node {
    input: "up_sampling2d_5/strided_slice:0"
    input: "conv2d_62/convolution/dilation_rate:0"
    output: "up_sampling2d_5/mul:0"
    name: "up_sampling2d_5/mul"
    op_type: "Mul"
  }
  node {
    input: "up_sampling2d_5/mul:0"
    output: "Cast__203:0"
    name: "Cast__203"
    op_type: "Cast"
    attribute {
      name: "to"
      i: 7
      type: INT
    }
    domain: ""
  }
  node {
    input: "Slice__202:0"
    input: "Cast__203:0"
    output: "Concat__204:0"
    name: "Concat__204"
    op_type: "Concat"
    attribute {
      name: "axis"
      i: 0
      type: INT
    }
    domain: ""
  }
  node {
    input: "concatenate_4/concat:0"
    input: "const_empty_float__131"
    input: "const_empty_float__131"
    input: "Concat__204:0"
    output: "Resize__205:0"
    name: "Resize__205"
    op_type: "Resize"
    attribute {
      name: "coordinate_transformation_mode"
      s: "asymmetric"
      type: STRING
    }
    attribute {
      name: "exclude_outside"
      i: 0
      type: INT
    }
    attribute {
      name: "mode"
      s: "nearest"
      type: STRING
    }
    attribute {
      name: "nearest_mode"
      s: "floor"
      type: STRING
    }
    domain: ""
  }
  node {
    input: "Resize__205:0"
    input: "conv2d_12/kernel/read:0"
    input: "conv2d_12/bias/read:0"
    output: "conv2d_12/BiasAdd:0"
    name: "conv2d_12/BiasAdd"
    op_type: "Conv"
    attribute {
      name: "dilations"
      ints: 1
      ints: 1
      type: INTS
    }
    attribute {
      name: "strides"
      ints: 1
      ints: 1
      type: INTS
    }
    attribute {
      name: "kernel_shape"
      ints: 3
      ints: 3
      type: INTS
    }
    attribute {
      name: "auto_pad"
      s: "SAME_UPPER"
      type: STRING
    }
    attribute {
      name: "group"
      i: 1
      type: INT
    }
    domain: ""
  }
  node {
    input: "conv2d_12/BiasAdd:0"
    output: "conv2d_12/Relu:0"
    name: "conv2d_12/Relu"
    op_type: "Relu"
  }
  node {
    input: "conv2d_12/Relu:0"
    input: "conv2d_2/Relu:0"
    output: "concatenate_5/concat:0"
    name: "concatenate_5/concat"
    op_type: "Concat"
    attribute {
      name: "axis"
      i: 1
      type: INT
    }
  }
  node {
    input: "concatenate_5/concat:0"
    output: "Shape__6281:0"
    name: "Shape__6281"
    op_type: "Shape"
    domain: ""
  }
  node {
    input: "Shape__6281:0"
    input: "Const__7261"
    output: "up_sampling2d_6/Shape:0"
    name: "Gather__6286"
    op_type: "Gather"
    domain: ""
  }
  node {
    input: "Shape__6281:0"
    input: "zero__2713"
    input: "const_ends__2332"
    output: "Slice__233:0"
    name: "Slice__233"
    op_type: "Slice"
    domain: ""
  }
  node {
    input: "up_sampling2d_6/Shape:0"
    output: "up_sampling2d_6/Shape__217:0"
    name: "up_sampling2d_6/Shape__217"
    op_type: "Cast"
    attribute {
      name: "to"
      i: 6
      type: INT
    }
  }
  node {
    input: "up_sampling2d_6/Shape__217:0"
    input: "const_ends__2170"
    input: "const_ends__573"
    input: "zero__2713"
    output: "up_sampling2d_6/strided_slice:0"
    name: "up_sampling2d_6/strided_slice"
    op_type: "Slice"
    domain: ""
  }
  node {
    input: "up_sampling2d_6/strided_slice:0"
    input: "conv2d_62/convolution/dilation_rate:0"
    output: "up_sampling2d_6/mul:0"
    name: "up_sampling2d_6/mul"
    op_type: "Mul"
  }
  node {
    input: "up_sampling2d_6/mul:0"
    output: "Cast__234:0"
    name: "Cast__234"
    op_type: "Cast"
    attribute {
      name: "to"
      i: 7
      type: INT
    }
    domain: ""
  }
  node {
    input: "Slice__233:0"
    input: "Cast__234:0"
    output: "Concat__235:0"
    name: "Concat__235"
    op_type: "Concat"
    attribute {
      name: "axis"
      i: 0
      type: INT
    }
    domain: ""
  }
  node {
    input: "concatenate_5/concat:0"
    input: "const_empty_float__131"
    input: "const_empty_float__131"
    input: "Concat__235:0"
    output: "Resize__236:0"
    name: "Resize__236"
    op_type: "Resize"
    attribute {
      name: "coordinate_transformation_mode"
      s: "asymmetric"
      type: STRING
    }
    attribute {
      name: "exclude_outside"
      i: 0
      type: INT
    }
    attribute {
      name: "mode"
      s: "nearest"
      type: STRING
    }
    attribute {
      name: "nearest_mode"
      s: "floor"
      type: STRING
    }
    domain: ""
  }
  node {
    input: "Resize__236:0"
    input: "conv2d_13/kernel/read:0"
    input: "conv2d_13/bias/read:0"
    output: "conv2d_13/BiasAdd:0"
    name: "conv2d_13/BiasAdd"
    op_type: "Conv"
    attribute {
      name: "dilations"
      ints: 1
      ints: 1
      type: INTS
    }
    attribute {
      name: "strides"
      ints: 1
      ints: 1
      type: INTS
    }
    attribute {
      name: "kernel_shape"
      ints: 3
      ints: 3
      type: INTS
    }
    attribute {
      name: "auto_pad"
      s: "SAME_UPPER"
      type: STRING
    }
    attribute {
      name: "group"
      i: 1
      type: INT
    }
    domain: ""
  }
  node {
    input: "conv2d_13/BiasAdd:0"
    output: "conv2d_13/Relu:0"
    name: "conv2d_13/Relu"
    op_type: "Relu"
  }
  node {
    input: "conv2d_13/Relu:0"
    input: "conv2d_1/Relu:0"
    output: "concatenate_6/concat:0"
    name: "concatenate_6/concat"
    op_type: "Concat"
    attribute {
      name: "axis"
      i: 1
      type: INT
    }
  }
  node {
    input: "concatenate_6/concat:0"
    output: "Shape__260:0"
    name: "Shape__260"
    op_type: "Shape"
    domain: ""
  }
  node {
    input: "Shape__260:0"
    input: "Const__7261"
    output: "up_sampling2d_7/Shape:0"
    name: "Gather__6292"
    op_type: "Gather"
    domain: ""
  }
  node {
    input: "Shape__260:0"
    input: "zero__2713"
    input: "const_ends__2332"
    output: "Slice__264:0"
    name: "Slice__264"
    op_type: "Slice"
    domain: ""
  }
  node {
    input: "up_sampling2d_7/Shape:0"
    output: "up_sampling2d_7/Shape__248:0"
    name: "up_sampling2d_7/Shape__248"
    op_type: "Cast"
    attribute {
      name: "to"
      i: 6
      type: INT
    }
  }
  node {
    input: "up_sampling2d_7/Shape__248:0"
    input: "const_ends__2170"
    input: "const_ends__573"
    input: "zero__2713"
    output: "up_sampling2d_7/strided_slice:0"
    name: "up_sampling2d_7/strided_slice"
    op_type: "Slice"
    domain: ""
  }
  node {
    input: "up_sampling2d_7/strided_slice:0"
    input: "conv2d_62/convolution/dilation_rate:0"
    output: "up_sampling2d_7/mul:0"
    name: "up_sampling2d_7/mul"
    op_type: "Mul"
  }
  node {
    input: "up_sampling2d_7/mul:0"
    output: "Cast__265:0"
    name: "Cast__265"
    op_type: "Cast"
    attribute {
      name: "to"
      i: 7
      type: INT
    }
    domain: ""
  }
  node {
    input: "Slice__264:0"
    input: "Cast__265:0"
    output: "Concat__266:0"
    name: "Concat__266"
    op_type: "Concat"
    attribute {
      name: "axis"
      i: 0
      type: INT
    }
    domain: ""
  }
  node {
    input: "concatenate_6/concat:0"
    input: "const_empty_float__131"
    input: "const_empty_float__131"
    input: "Concat__266:0"
    output: "Resize__267:0"
    name: "Resize__267"
    op_type: "Resize"
    attribute {
      name: "coordinate_transformation_mode"
      s: "asymmetric"
      type: STRING
    }
    attribute {
      name: "exclude_outside"
      i: 0
      type: INT
    }
    attribute {
      name: "mode"
      s: "nearest"
      type: STRING
    }
    attribute {
      name: "nearest_mode"
      s: "floor"
      type: STRING
    }
    domain: ""
  }
  node {
    input: "Resize__267:0"
    input: "conv2d_14/kernel/read:0"
    input: "conv2d_14/bias/read:0"
    output: "conv2d_14/BiasAdd:0"
    name: "conv2d_14/BiasAdd"
    op_type: "Conv"
    attribute {
      name: "dilations"
      ints: 1
      ints: 1
      type: INTS
    }
    attribute {
      name: "strides"
      ints: 1
      ints: 1
      type: INTS
    }
    attribute {
      name: "kernel_shape"
      ints: 3
      ints: 3
      type: INTS
    }
    attribute {
      name: "auto_pad"
      s: "SAME_UPPER"
      type: STRING
    }
    attribute {
      name: "group"
      i: 1
      type: INT
    }
    domain: ""
  }
  node {
    input: "conv2d_14/BiasAdd:0"
    output: "conv2d_14/Sigmoid:0"
    name: "conv2d_14/Sigmoid"
    op_type: "Sigmoid"
  }
  node {
    input: "conv2d_14/Sigmoid:0"
    input: "conv2d_1/BiasAdd__6:0"
    output: "concatenate_7/concat:0"
    name: "concatenate_7/concat"
    op_type: "Concat"
    attribute {
      name: "axis"
      i: 1
      type: INT
    }
  }
  node {
    input: "concatenate_7/concat:0"
    input: "const_starts__282"
    input: "const_ends__283"
    input: "Const__7261"
    output: "lambda_1/strided_slice:0"
    name: "lambda_1/strided_slice"
    op_type: "Slice"
    domain: ""
  }
  node {
    input: "concatenate_7/concat:0"
    input: "const_starts__279"
    input: "const_ends__280"
    input: "Const__7261"
    output: "lambda_1/strided_slice_1:0"
    name: "lambda_1/strided_slice_1"
    op_type: "Slice"
    domain: ""
  }
  node {
    input: "const_fold_opt__7632"
    input: "lambda_1/strided_slice:0"
    output: "lambda_1/add:0"
    name: "lambda_1/add"
    op_type: "Sub"
  }
  node {
    input: "lambda_1/strided_slice_1:0"
    output: "Transpose__6313:0"
    name: "Transpose__6313"
    op_type: "Transpose"
    attribute {
      name: "perm"
      ints: 0
      ints: 2
      ints: 3
      ints: 1
      type: INTS
    }
    domain: ""
  }
  node {
    input: "lambda_1/add:0"
    input: "Transpose__7081_shape__7703"
    output: "Transpose__7081:0"
    name: "Transpose__7081"
    op_type: "Reshape"
    domain: ""
  }
  node {
    input: "Transpose__7081:0"
    output: "Squeeze__7702:0"
    name: "Squeeze__7702"
    op_type: "Squeeze"
    attribute {
      name: "axes"
      ints: 0
      type: INTS
    }
    domain: ""
  }
  node {
    input: "Transpose__6313:0"
    input: "Squeeze__7702:0"
    output: "lambda_1/truediv:0"
    name: "lambda_1/truediv"
    op_type: "Div"
  }
  node {
    input: "lambda_1/truediv:0"
    output: "fem1/BiasAdd__285:0"
    name: "fem1/BiasAdd__285"
    op_type: "Transpose"
    attribute {
      name: "perm"
      ints: 0
      ints: 3
      ints: 1
      ints: 2
      type: INTS
    }
  }
  node {
    input: "fem1/BiasAdd__285:0"
    input: "fem1/kernel/read:0"
    input: "fem1/bias/read:0"
    output: "fem1/BiasAdd:0"
    name: "fem1/BiasAdd"
    op_type: "Conv"
    attribute {
      name: "dilations"
      ints: 1
      ints: 1
      type: INTS
    }
    attribute {
      name: "strides"
      ints: 1
      ints: 1
      type: INTS
    }
    attribute {
      name: "kernel_shape"
      ints: 3
      ints: 3
      type: INTS
    }
    attribute {
      name: "auto_pad"
      s: "SAME_UPPER"
      type: STRING
    }
    attribute {
      name: "group"
      i: 1
      type: INT
    }
    domain: ""
  }
  node {
    input: "fem1/BiasAdd:0"
    output: "fem1/Relu:0"
    name: "fem1/Relu"
    op_type: "Relu"
  }
  node {
    input: "fem1/Relu:0"
    input: "conv2d_15/kernel/read:0"
    input: "conv2d_15/bias/read:0"
    output: "conv2d_15/BiasAdd:0"
    name: "conv2d_15/BiasAdd"
    op_type: "Conv"
    attribute {
      name: "dilations"
      ints: 1
      ints: 1
      type: INTS
    }
    attribute {
      name: "strides"
      ints: 1
      ints: 1
      type: INTS
    }
    attribute {
      name: "kernel_shape"
      ints: 3
      ints: 3
      type: INTS
    }
    attribute {
      name: "auto_pad"
      s: "SAME_UPPER"
      type: STRING
    }
    attribute {
      name: "group"
      i: 1
      type: INT
    }
    domain: ""
  }
  node {
    input: "fem1/Relu:0"
    input: "fem2/kernel/read:0"
    input: "fem2/bias/read:0"
    output: "fem2/BiasAdd:0"
    name: "fem2/BiasAdd"
    op_type: "Conv"
    attribute {
      name: "dilations"
      ints: 1
      ints: 1
      type: INTS
    }
    attribute {
      name: "strides"
      ints: 1
      ints: 1
      type: INTS
    }
    attribute {
      name: "kernel_shape"
      ints: 3
      ints: 3
      type: INTS
    }
    attribute {
      name: "auto_pad"
      s: "SAME_UPPER"
      type: STRING
    }
    attribute {
      name: "group"
      i: 1
      type: INT
    }
    domain: ""
  }
  node {
    input: "conv2d_15/BiasAdd:0"
    output: "conv2d_15/Relu:0"
    name: "conv2d_15/Relu"
    op_type: "Relu"
  }
  node {
    input: "fem2/BiasAdd:0"
    output: "fem2/Relu:0"
    name: "fem2/Relu"
    op_type: "Relu"
  }
  node {
    input: "conv2d_15/Relu:0"
    output: "Shape__6455:0"
    name: "Shape__6455"
    op_type: "Shape"
    domain: ""
  }
  node {
    input: "fem2/Relu:0"
    input: "conv2d_24/kernel/read:0"
    input: "conv2d_24/bias/read:0"
    output: "conv2d_24/BiasAdd:0"
    name: "conv2d_24/BiasAdd"
    op_type: "Conv"
    attribute {
      name: "dilations"
      ints: 1
      ints: 1
      type: INTS
    }
    attribute {
      name: "strides"
      ints: 1
      ints: 1
      type: INTS
    }
    attribute {
      name: "kernel_shape"
      ints: 3
      ints: 3
      type: INTS
    }
    attribute {
      name: "auto_pad"
      s: "SAME_UPPER"
      type: STRING
    }
    attribute {
      name: "group"
      i: 1
      type: INT
    }
    domain: ""
  }
  node {
    input: "fem2/Relu:0"
    input: "fem3/kernel/read:0"
    input: "fem3/bias/read:0"
    output: "fem3/BiasAdd:0"
    name: "fem3/BiasAdd"
    op_type: "Conv"
    attribute {
      name: "dilations"
      ints: 1
      ints: 1
      type: INTS
    }
    attribute {
      name: "strides"
      ints: 1
      ints: 1
      type: INTS
    }
    attribute {
      name: "kernel_shape"
      ints: 3
      ints: 3
      type: INTS
    }
    attribute {
      name: "auto_pad"
      s: "SAME_UPPER"
      type: STRING
    }
    attribute {
      name: "group"
      i: 1
      type: INT
    }
    domain: ""
  }
  node {
    input: "Shape__6455:0"
    input: "Const__7261"
    output: "conv2d_16/convolution/Shape:0"
    name: "Gather__6460"
    op_type: "Gather"
    domain: ""
  }
  node {
    input: "conv2d_24/BiasAdd:0"
    output: "conv2d_24/Relu:0"
    name: "conv2d_24/Relu"
    op_type: "Relu"
  }
  node {
    input: "fem3/BiasAdd:0"
    output: "fem3/Relu:0"
    name: "fem3/Relu"
    op_type: "Relu"
  }
  node {
    input: "conv2d_16/convolution/Shape:0"
    output: "conv2d_16/convolution/Shape__1249:0"
    name: "conv2d_16/convolution/Shape__1249"
    op_type: "Cast"
    attribute {
      name: "to"
      i: 6
      type: INT
    }
  }
  node {
    input: "conv2d_24/Relu:0"
    output: "Shape__6445:0"
    name: "Shape__6445"
    op_type: "Shape"
    domain: ""
  }
  node {
    input: "fem3/Relu:0"
    input: "conv2d_31/kernel/read:0"
    input: "conv2d_31/bias/read:0"
    output: "conv2d_31/BiasAdd:0"
    name: "conv2d_31/BiasAdd"
    op_type: "Conv"
    attribute {
      name: "dilations"
      ints: 1
      ints: 1
      type: INTS
    }
    attribute {
      name: "strides"
      ints: 1
      ints: 1
      type: INTS
    }
    attribute {
      name: "kernel_shape"
      ints: 3
      ints: 3
      type: INTS
    }
    attribute {
      name: "auto_pad"
      s: "SAME_UPPER"
      type: STRING
    }
    attribute {
      name: "group"
      i: 1
      type: INT
    }
    domain: ""
  }
  node {
    input: "fem3/Relu:0"
    input: "fem4/kernel/read:0"
    input: "fem4/bias/read:0"
    output: "fem4/BiasAdd:0"
    name: "fem4/BiasAdd"
    op_type: "Conv"
    attribute {
      name: "dilations"
      ints: 1
      ints: 1
      type: INTS
    }
    attribute {
      name: "strides"
      ints: 1
      ints: 1
      type: INTS
    }
    attribute {
      name: "kernel_shape"
      ints: 3
      ints: 3
      type: INTS
    }
    attribute {
      name: "auto_pad"
      s: "SAME_UPPER"
      type: STRING
    }
    attribute {
      name: "group"
      i: 1
      type: INT
    }
    domain: ""
  }
  node {
    input: "conv2d_16/convolution/Shape__1249:0"
    input: "const_ends__2170"
    input: "const_ends__2332"
    input: "zero__2713"
    output: "conv2d_16/convolution/strided_slice:0"
    name: "conv2d_16/convolution/strided_slice"
    op_type: "Slice"
    domain: ""
  }
  node {
    input: "conv2d_16/convolution/Shape__1249:0"
    input: "const_ends__2332"
    input: "const_ends__573"
    input: "zero__2713"
    output: "conv2d_16/convolution/strided_slice_1:0"
    name: "conv2d_16/convolution/strided_slice_1"
    op_type: "Slice"
    domain: ""
  }
  node {
    input: "Shape__6445:0"
    input: "Const__7261"
    output: "conv2d_25/convolution/Shape:0"
    name: "Gather__6450"
    op_type: "Gather"
    domain: ""
  }
  node {
    input: "conv2d_31/BiasAdd:0"
    output: "conv2d_31/Relu:0"
    name: "conv2d_31/Relu"
    op_type: "Relu"
  }
  node {
    input: "fem4/BiasAdd:0"
    output: "fem4/Relu:0"
    name: "fem4/Relu"
    op_type: "Relu"
  }
  node {
    input: "conv2d_16/convolution/strided_slice:0"
    input: "conv2d_16/convolution/strided_slice_1:0"
    output: "conv2d_16/convolution/stack_1_Concat__1260:0"
    name: "conv2d_16/convolution/stack_1_Concat__1260"
    op_type: "Concat"
    attribute {
      name: "axis"
      i: 0
      type: INT
    }
    domain: ""
  }
  node {
    input: "conv2d_25/convolution/Shape:0"
    output: "conv2d_25/convolution/Shape__807:0"
    name: "conv2d_25/convolution/Shape__807"
    op_type: "Cast"
    attribute {
      name: "to"
      i: 6
      type: INT
    }
  }
  node {
    input: "conv2d_31/Relu:0"
    input: "conv2d_32/kernel/read:0"
    input: "conv2d_32/bias/read:0"
    output: "conv2d_32/BiasAdd:0"
    name: "conv2d_32/BiasAdd"
    op_type: "Conv"
    attribute {
      name: "dilations"
      ints: 1
      ints: 1
      type: INTS
    }
    attribute {
      name: "strides"
      ints: 1
      ints: 1
      type: INTS
    }
    attribute {
      name: "kernel_shape"
      ints: 7
      ints: 7
      type: INTS
    }
    attribute {
      name: "group"
      i: 1
      type: INT
    }
    domain: ""
  }
  node {
    input: "fem4/Relu:0"
    input: "conv2d_35/kernel/read:0"
    input: "conv2d_35/bias/read:0"
    output: "conv2d_35/BiasAdd:0"
    name: "conv2d_35/BiasAdd"
    op_type: "Conv"
    attribute {
      name: "dilations"
      ints: 1
      ints: 1
      type: INTS
    }
    attribute {
      name: "strides"
      ints: 1
      ints: 1
      type: INTS
    }
    attribute {
      name: "kernel_shape"
      ints: 3
      ints: 3
      type: INTS
    }
    attribute {
      name: "auto_pad"
      s: "SAME_UPPER"
      type: STRING
    }
    attribute {
      name: "group"
      i: 1
      type: INT
    }
    domain: ""
  }
  node {
    input: "fem4/Relu:0"
    input: "fem5/kernel/read:0"
    input: "fem5/bias/read:0"
    output: "fem5/BiasAdd:0"
    name: "fem5/BiasAdd"
    op_type: "Conv"
    attribute {
      name: "dilations"
      ints: 1
      ints: 1
      type: INTS
    }
    attribute {
      name: "strides"
      ints: 1
      ints: 1
      type: INTS
    }
    attribute {
      name: "kernel_shape"
      ints: 3
      ints: 3
      type: INTS
    }
    attribute {
      name: "auto_pad"
      s: "SAME_UPPER"
      type: STRING
    }
    attribute {
      name: "group"
      i: 1
      type: INT
    }
    domain: ""
  }
  node {
    input: "conv2d_16/convolution/stack_1_Concat__1260:0"
    input: "conv2d_52/convolution/required_space_to_batch_paddings/strided_slice_1:0"
    output: "conv2d_16/convolution/required_space_to_batch_paddings/add_1:0"
    name: "conv2d_16/convolution/required_space_to_batch_paddings/add_1"
    op_type: "Add"
  }
  node {
    input: "conv2d_25/convolution/Shape__807:0"
    input: "const_ends__2170"
    input: "const_ends__2332"
    input: "zero__2713"
    output: "conv2d_25/convolution/strided_slice:0"
    name: "conv2d_25/convolution/strided_slice"
    op_type: "Slice"
    domain: ""
  }
  node {
    input: "conv2d_25/convolution/Shape__807:0"
    input: "const_ends__2332"
    input: "const_ends__573"
    input: "zero__2713"
    output: "conv2d_25/convolution/strided_slice_1:0"
    name: "conv2d_25/convolution/strided_slice_1"
    op_type: "Slice"
    domain: ""
  }
  node {
    input: "conv2d_32/BiasAdd:0"
    output: "conv2d_32/Relu:0"
    name: "conv2d_32/Relu"
    op_type: "Relu"
  }
  node {
    input: "conv2d_35/BiasAdd:0"
    output: "conv2d_35/Relu:0"
    name: "conv2d_35/Relu"
    op_type: "Relu"
  }
  node {
    input: "fem5/BiasAdd:0"
    output: "fem5/Relu:0"
    name: "fem5/Relu"
    op_type: "Relu"
  }
  node {
    input: "conv2d_16/convolution/required_space_to_batch_paddings/add_1:0"
    input: "conv2d_62/convolution/dilation_rate:0"
    output: "Div__1261:0"
    name: "Div__1261"
    op_type: "Div"
    domain: ""
  }
  node {
    input: "conv2d_25/convolution/strided_slice:0"
    input: "conv2d_25/convolution/strided_slice_1:0"
    output: "conv2d_25/convolution/stack_1_Concat__818:0"
    name: "conv2d_25/convolution/stack_1_Concat__818"
    op_type: "Concat"
    attribute {
      name: "axis"
      i: 0
      type: INT
    }
    domain: ""
  }
  node {
    input: "conv2d_32/Relu:0"
    input: "conv2d_33/kernel/read:0"
    input: "conv2d_33/bias/read:0"
    output: "conv2d_33/BiasAdd:0"
    name: "conv2d_33/BiasAdd"
    op_type: "Conv"
    attribute {
      name: "dilations"
      ints: 1
      ints: 1
      type: INTS
    }
    attribute {
      name: "strides"
      ints: 1
      ints: 1
      type: INTS
    }
    attribute {
      name: "kernel_shape"
      ints: 7
      ints: 7
      type: INTS
    }
    attribute {
      name: "group"
      i: 1
      type: INT
    }
    domain: ""
  }
  node {
    input: "conv2d_35/Relu:0"
    input: "conv2d_36/kernel/read:0"
    input: "conv2d_36/bias/read:0"
    output: "conv2d_36/BiasAdd:0"
    name: "conv2d_36/BiasAdd"
    op_type: "Conv"
    attribute {
      name: "dilations"
      ints: 1
      ints: 1
      type: INTS
    }
    attribute {
      name: "strides"
      ints: 1
      ints: 1
      type: INTS
    }
    attribute {
      name: "kernel_shape"
      ints: 5
      ints: 5
      type: INTS
    }
    attribute {
      name: "group"
      i: 1
      type: INT
    }
    domain: ""
  }
  node {
    input: "fem5/Relu:0"
    input: "conv2d_39/kernel/read:0"
    input: "conv2d_39/bias/read:0"
    output: "conv2d_39/BiasAdd:0"
    name: "conv2d_39/BiasAdd"
    op_type: "Conv"
    attribute {
      name: "dilations"
      ints: 1
      ints: 1
      type: INTS
    }
    attribute {
      name: "strides"
      ints: 1
      ints: 1
      type: INTS
    }
    attribute {
      name: "kernel_shape"
      ints: 3
      ints: 3
      type: INTS
    }
    attribute {
      name: "auto_pad"
      s: "SAME_UPPER"
      type: STRING
    }
    attribute {
      name: "group"
      i: 1
      type: INT
    }
    domain: ""
  }
  node {
    input: "fem5/Relu:0"
    input: "fem6/kernel/read:0"
    input: "fem6/bias/read:0"
    output: "fem6/BiasAdd:0"
    name: "fem6/BiasAdd"
    op_type: "Conv"
    attribute {
      name: "dilations"
      ints: 1
      ints: 1
      type: INTS
    }
    attribute {
      name: "strides"
      ints: 1
      ints: 1
      type: INTS
    }
    attribute {
      name: "kernel_shape"
      ints: 3
      ints: 3
      type: INTS
    }
    attribute {
      name: "auto_pad"
      s: "SAME_UPPER"
      type: STRING
    }
    attribute {
      name: "group"
      i: 1
      type: INT
    }
    domain: ""
  }
  node {
    input: "Div__1261:0"
    input: "conv2d_62/convolution/dilation_rate:0"
    output: "Mul__1262:0"
    name: "Mul__1262"
    op_type: "Mul"
    domain: ""
  }
  node {
    input: "conv2d_25/convolution/stack_1_Concat__818:0"
    input: "conv2d_25/convolution/required_space_to_batch_paddings/add:0"
    output: "conv2d_25/convolution/required_space_to_batch_paddings/add_1:0"
    name: "conv2d_25/convolution/required_space_to_batch_paddings/add_1"
    op_type: "Add"
  }
  node {
    input: "conv2d_33/BiasAdd:0"
    output: "conv2d_33/Relu:0"
    name: "conv2d_33/Relu"
    op_type: "Relu"
  }
  node {
    input: "conv2d_36/BiasAdd:0"
    output: "conv2d_36/Relu:0"
    name: "conv2d_36/Relu"
    op_type: "Relu"
  }
  node {
    input: "conv2d_39/BiasAdd:0"
    output: "conv2d_39/Relu:0"
    name: "conv2d_39/Relu"
    op_type: "Relu"
  }
  node {
    input: "fem6/BiasAdd:0"
    output: "fem6/Relu:0"
    name: "fem6/Relu"
    op_type: "Relu"
  }
  node {
    input: "conv2d_14/Sigmoid:0"
    input: "fem6/Relu:0"
    output: "concatenate_12/concat:0"
    name: "concatenate_12/concat"
    op_type: "Concat"
    attribute {
      name: "axis"
      i: 1
      type: INT
    }
  }
  node {
    input: "conv2d_16/convolution/required_space_to_batch_paddings/add_1:0"
    input: "Mul__1262:0"
    output: "conv2d_16/convolution/required_space_to_batch_paddings/mod:0"
    name: "conv2d_16/convolution/required_space_to_batch_paddings/mod"
    op_type: "Sub"
    domain: ""
  }
  node {
    input: "conv2d_25/convolution/required_space_to_batch_paddings/add_1:0"
    input: "conv2d_62/convolution/dilation_rate:0"
    output: "Div__819:0"
    name: "Div__819"
    op_type: "Div"
    domain: ""
  }
  node {
    input: "conv2d_33/Relu:0"
    input: "conv2d_34/kernel/read:0"
    input: "conv2d_34/bias/read:0"
    output: "conv2d_34/BiasAdd:0"
    name: "conv2d_34/BiasAdd"
    op_type: "Conv"
    attribute {
      name: "dilations"
      ints: 1
      ints: 1
      type: INTS
    }
    attribute {
      name: "strides"
      ints: 1
      ints: 1
      type: INTS
    }
    attribute {
      name: "kernel_shape"
      ints: 7
      ints: 7
      type: INTS
    }
    attribute {
      name: "group"
      i: 1
      type: INT
    }
    domain: ""
  }
  node {
    input: "conv2d_36/Relu:0"
    input: "conv2d_37/kernel/read:0"
    input: "conv2d_37/bias/read:0"
    output: "conv2d_37/BiasAdd:0"
    name: "conv2d_37/BiasAdd"
    op_type: "Conv"
    attribute {
      name: "dilations"
      ints: 1
      ints: 1
      type: INTS
    }
    attribute {
      name: "strides"
      ints: 1
      ints: 1
      type: INTS
    }
    attribute {
      name: "kernel_shape"
      ints: 5
      ints: 5
      type: INTS
    }
    attribute {
      name: "group"
      i: 1
      type: INT
    }
    domain: ""
  }
  node {
    input: "conv2d_39/Relu:0"
    input: "conv2d_40/kernel/read:0"
    input: "conv2d_40/bias/read:0"
    output: "conv2d_40/BiasAdd:0"
    name: "conv2d_40/BiasAdd"
    op_type: "Conv"
    attribute {
      name: "dilations"
      ints: 1
      ints: 1
      type: INTS
    }
    attribute {
      name: "strides"
      ints: 2
      ints: 2
      type: INTS
    }
    attribute {
      name: "kernel_shape"
      ints: 3
      ints: 3
      type: INTS
    }
    attribute {
      name: "auto_pad"
      s: "SAME_UPPER"
      type: STRING
    }
    attribute {
      name: "group"
      i: 1
      type: INT
    }
    domain: ""
  }
  node {
    input: "fem6/Relu:0"
    input: "fem7/kernel/read:0"
    input: "fem7/bias/read:0"
    output: "fem7/BiasAdd:0"
    name: "fem7/BiasAdd"
    op_type: "Conv"
    attribute {
      name: "dilations"
      ints: 1
      ints: 1
      type: INTS
    }
    attribute {
      name: "strides"
      ints: 1
      ints: 1
      type: INTS
    }
    attribute {
      name: "kernel_shape"
      ints: 3
      ints: 3
      type: INTS
    }
    attribute {
      name: "auto_pad"
      s: "SAME_UPPER"
      type: STRING
    }
    attribute {
      name: "group"
      i: 1
      type: INT
    }
    domain: ""
  }
  node {
    input: "concatenate_12/concat:0"
    input: "conv2d_50/kernel/read:0"
    input: "conv2d_50/bias/read:0"
    output: "conv2d_50/BiasAdd:0"
    name: "conv2d_50/BiasAdd"
    op_type: "Conv"
    attribute {
      name: "dilations"
      ints: 1
      ints: 1
      type: INTS
    }
    attribute {
      name: "strides"
      ints: 1
      ints: 1
      type: INTS
    }
    attribute {
      name: "kernel_shape"
      ints: 3
      ints: 3
      type: INTS
    }
    attribute {
      name: "auto_pad"
      s: "SAME_UPPER"
      type: STRING
    }
    attribute {
      name: "group"
      i: 1
      type: INT
    }
    domain: ""
  }
  node {
    input: "conv2d_62/convolution/dilation_rate:0"
    input: "conv2d_16/convolution/required_space_to_batch_paddings/mod:0"
    output: "conv2d_16/convolution/required_space_to_batch_paddings/sub:0"
    name: "conv2d_16/convolution/required_space_to_batch_paddings/sub"
    op_type: "Sub"
  }
  node {
    input: "Div__819:0"
    input: "conv2d_62/convolution/dilation_rate:0"
    output: "Mul__820:0"
    name: "Mul__820"
    op_type: "Mul"
    domain: ""
  }
  node {
    input: "conv2d_34/BiasAdd:0"
    output: "conv2d_34/Relu:0"
    name: "conv2d_34/Relu"
    op_type: "Relu"
  }
  node {
    input: "conv2d_37/BiasAdd:0"
    output: "conv2d_37/Relu:0"
    name: "conv2d_37/Relu"
    op_type: "Relu"
  }
  node {
    input: "conv2d_40/BiasAdd:0"
    output: "conv2d_40/Relu:0"
    name: "conv2d_40/Relu"
    op_type: "Relu"
  }
  node {
    input: "fem7/BiasAdd:0"
    output: "fem7/Relu:0"
    name: "fem7/Relu"
    op_type: "Relu"
  }
  node {
    input: "conv2d_50/BiasAdd:0"
    output: "conv2d_50/Relu:0"
    name: "conv2d_50/Relu"
    op_type: "Relu"
  }
  node {
    input: "conv2d_14/Sigmoid:0"
    input: "fem7/Relu:0"
    output: "concatenate_13/concat:0"
    name: "concatenate_13/concat"
    op_type: "Concat"
    attribute {
      name: "axis"
      i: 1
      type: INT
    }
  }
  node {
    input: "conv2d_16/convolution/required_space_to_batch_paddings/sub:0"
    input: "conv2d_62/convolution/dilation_rate:0"
    output: "Div__1263:0"
    name: "Div__1263"
    op_type: "Div"
    domain: ""
  }
  node {
    input: "conv2d_25/convolution/required_space_to_batch_paddings/add_1:0"
    input: "Mul__820:0"
    output: "conv2d_25/convolution/required_space_to_batch_paddings/mod:0"
    name: "conv2d_25/convolution/required_space_to_batch_paddings/mod"
    op_type: "Sub"
    domain: ""
  }
  node {
    input: "conv2d_34/Relu:0"
    output: "Shape__6423:0"
    name: "Shape__6423"
    op_type: "Shape"
    domain: ""
  }
  node {
    input: "conv2d_34/Relu:0"
    input: "conv2d_transpose_3/kernel/read:0"
    output: "conv2d_transpose_3/conv2d_transpose:0"
    name: "conv2d_transpose_3/conv2d_transpose"
    op_type: "ConvTranspose"
    attribute {
      name: "dilations"
      ints: 1
      ints: 1
      type: INTS
    }
    attribute {
      name: "strides"
      ints: 1
      ints: 1
      type: INTS
    }
    attribute {
      name: "kernel_shape"
      ints: 7
      ints: 7
      type: INTS
    }
  }
  node {
    input: "conv2d_37/Relu:0"
    input: "conv2d_38/kernel/read:0"
    input: "conv2d_38/bias/read:0"
    output: "conv2d_38/BiasAdd:0"
    name: "conv2d_38/BiasAdd"
    op_type: "Conv"
    attribute {
      name: "dilations"
      ints: 1
      ints: 1
      type: INTS
    }
    attribute {
      name: "strides"
      ints: 1
      ints: 1
      type: INTS
    }
    attribute {
      name: "kernel_shape"
      ints: 5
      ints: 5
      type: INTS
    }
    attribute {
      name: "group"
      i: 1
      type: INT
    }
    domain: ""
  }
  node {
    input: "conv2d_40/Relu:0"
    input: "conv2d_41/kernel/read:0"
    input: "conv2d_41/bias/read:0"
    output: "conv2d_41/BiasAdd:0"
    name: "conv2d_41/BiasAdd"
    op_type: "Conv"
    attribute {
      name: "dilations"
      ints: 1
      ints: 1
      type: INTS
    }
    attribute {
      name: "strides"
      ints: 2
      ints: 2
      type: INTS
    }
    attribute {
      name: "kernel_shape"
      ints: 3
      ints: 3
      type: INTS
    }
    attribute {
      name: "auto_pad"
      s: "SAME_UPPER"
      type: STRING
    }
    attribute {
      name: "group"
      i: 1
      type: INT
    }
    domain: ""
  }
  node {
    input: "fem7/Relu:0"
    input: "fem8/kernel/read:0"
    input: "fem8/bias/read:0"
    output: "fem8/BiasAdd:0"
    name: "fem8/BiasAdd"
    op_type: "Conv"
    attribute {
      name: "dilations"
      ints: 1
      ints: 1
      type: INTS
    }
    attribute {
      name: "strides"
      ints: 1
      ints: 1
      type: INTS
    }
    attribute {
      name: "kernel_shape"
      ints: 3
      ints: 3
      type: INTS
    }
    attribute {
      name: "auto_pad"
      s: "SAME_UPPER"
      type: STRING
    }
    attribute {
      name: "group"
      i: 1
      type: INT
    }
    domain: ""
  }
  node {
    input: "conv2d_50/Relu:0"
    output: "Shape__6599:0"
    name: "Shape__6599"
    op_type: "Shape"
    domain: ""
  }
  node {
    input: "concatenate_13/concat:0"
    input: "conv2d_59/kernel/read:0"
    input: "conv2d_59/bias/read:0"
    output: "conv2d_59/BiasAdd:0"
    name: "conv2d_59/BiasAdd"
    op_type: "Conv"
    attribute {
      name: "dilations"
      ints: 1
      ints: 1
      type: INTS
    }
    attribute {
      name: "strides"
      ints: 1
      ints: 1
      type: INTS
    }
    attribute {
      name: "kernel_shape"
      ints: 3
      ints: 3
      type: INTS
    }
    attribute {
      name: "auto_pad"
      s: "SAME_UPPER"
      type: STRING
    }
    attribute {
      name: "group"
      i: 1
      type: INT
    }
    domain: ""
  }
  node {
    input: "Div__1263:0"
    input: "conv2d_62/convolution/dilation_rate:0"
    output: "Mul__1264:0"
    name: "Mul__1264"
    op_type: "Mul"
    domain: ""
  }
  node {
    input: "conv2d_62/convolution/dilation_rate:0"
    input: "conv2d_25/convolution/required_space_to_batch_paddings/mod:0"
    output: "conv2d_25/convolution/required_space_to_batch_paddings/sub:0"
    name: "conv2d_25/convolution/required_space_to_batch_paddings/sub"
    op_type: "Sub"
  }
  node {
    input: "Shape__6423:0"
    input: "Const__7261"
    output: "conv2d_transpose_3/Shape:0"
    name: "Gather__6428"
    op_type: "Gather"
    domain: ""
  }
  node {
    input: "conv2d_transpose_3/conv2d_transpose:0"
    output: "Shape__6441:0"
    name: "Shape__6441"
    op_type: "Shape"
    domain: ""
  }
  node {
    input: "conv2d_38/BiasAdd:0"
    output: "conv2d_38/Relu:0"
    name: "conv2d_38/Relu"
    op_type: "Relu"
  }
  node {
    input: "conv2d_41/BiasAdd:0"
    output: "conv2d_41/Relu:0"
    name: "conv2d_41/Relu"
    op_type: "Relu"
  }
  node {
    input: "fem8/BiasAdd:0"
    output: "fem8/Relu:0"
    name: "fem8/Relu"
    op_type: "Relu"
  }
  node {
    input: "Shape__6599:0"
    input: "Const__7261"
    output: "conv2d_51/convolution/Shape:0"
    name: "Gather__6604"
    op_type: "Gather"
    domain: ""
  }
  node {
    input: "conv2d_59/BiasAdd:0"
    output: "conv2d_59/Relu:0"
    name: "conv2d_59/Relu"
    op_type: "Relu"
  }
  node {
    input: "conv2d_14/Sigmoid:0"
    input: "fem8/Relu:0"
    output: "concatenate_16/concat:0"
    name: "concatenate_16/concat"
    op_type: "Concat"
    attribute {
      name: "axis"
      i: 1
      type: INT
    }
  }
  node {
    input: "conv2d_16/convolution/required_space_to_batch_paddings/sub:0"
    input: "Mul__1264:0"
    output: "conv2d_16/convolution/required_space_to_batch_paddings/mod_1:0"
    name: "conv2d_16/convolution/required_space_to_batch_paddings/mod_1"
    op_type: "Sub"
    domain: ""
  }
  node {
    input: "conv2d_25/convolution/required_space_to_batch_paddings/sub:0"
    input: "conv2d_62/convolution/dilation_rate:0"
    output: "Div__821:0"
    name: "Div__821"
    op_type: "Div"
    domain: ""
  }
  node {
    input: "conv2d_transpose_3/Shape:0"
    output: "conv2d_transpose_3/Shape__634:0"
    name: "conv2d_transpose_3/Shape__634"
    op_type: "Cast"
    attribute {
      name: "to"
      i: 6
      type: INT
    }
  }
  node {
    input: "Shape__6441:0"
    input: "Const__7261"
    output: "Shape__653:0"
    name: "Gather__6444"
    op_type: "Gather"
    domain: ""
  }
  node {
    input: "conv2d_38/Relu:0"
    output: "Shape__6401:0"
    name: "Shape__6401"
    op_type: "Shape"
    domain: ""
  }
  node {
    input: "conv2d_38/Relu:0"
    input: "conv2d_transpose_6/kernel/read:0"
    output: "conv2d_transpose_6/conv2d_transpose:0"
    name: "conv2d_transpose_6/conv2d_transpose"
    op_type: "ConvTranspose"
    attribute {
      name: "dilations"
      ints: 1
      ints: 1
      type: INTS
    }
    attribute {
      name: "strides"
      ints: 1
      ints: 1
      type: INTS
    }
    attribute {
      name: "kernel_shape"
      ints: 5
      ints: 5
      type: INTS
    }
  }
  node {
    input: "conv2d_41/Relu:0"
    input: "conv2d_42/kernel/read:0"
    input: "conv2d_42/bias/read:0"
    output: "conv2d_42/BiasAdd:0"
    name: "conv2d_42/BiasAdd"
    op_type: "Conv"
    attribute {
      name: "dilations"
      ints: 1
      ints: 1
      type: INTS
    }
    attribute {
      name: "strides"
      ints: 1
      ints: 1
      type: INTS
    }
    attribute {
      name: "kernel_shape"
      ints: 3
      ints: 3
      type: INTS
    }
    attribute {
      name: "auto_pad"
      s: "SAME_UPPER"
      type: STRING
    }
    attribute {
      name: "group"
      i: 1
      type: INT
    }
    domain: ""
  }
  node {
    input: "fem8/Relu:0"
    input: "fem9/kernel/read:0"
    input: "fem9/bias/read:0"
    output: "fem9/BiasAdd:0"
    name: "fem9/BiasAdd"
    op_type: "Conv"
    attribute {
      name: "dilations"
      ints: 1
      ints: 1
      type: INTS
    }
    attribute {
      name: "strides"
      ints: 1
      ints: 1
      type: INTS
    }
    attribute {
      name: "kernel_shape"
      ints: 3
      ints: 3
      type: INTS
    }
    attribute {
      name: "auto_pad"
      s: "SAME_UPPER"
      type: STRING
    }
    attribute {
      name: "group"
      i: 1
      type: INT
    }
    domain: ""
  }
  node {
    input: "conv2d_51/convolution/Shape:0"
    output: "conv2d_51/convolution/Shape__2917:0"
    name: "conv2d_51/convolution/Shape__2917"
    op_type: "Cast"
    attribute {
      name: "to"
      i: 6
      type: INT
    }
  }
  node {
    input: "conv2d_59/Relu:0"
    output: "Shape__6591:0"
    name: "Shape__6591"
    op_type: "Shape"
    domain: ""
  }
  node {
    input: "concatenate_16/concat:0"
    input: "conv2d_66/kernel/read:0"
    input: "conv2d_66/bias/read:0"
    output: "conv2d_66/BiasAdd:0"
    name: "conv2d_66/BiasAdd"
    op_type: "Conv"
    attribute {
      name: "dilations"
      ints: 1
      ints: 1
      type: INTS
    }
    attribute {
      name: "strides"
      ints: 1
      ints: 1
      type: INTS
    }
    attribute {
      name: "kernel_shape"
      ints: 3
      ints: 3
      type: INTS
    }
    attribute {
      name: "auto_pad"
      s: "SAME_UPPER"
      type: STRING
    }
    attribute {
      name: "group"
      i: 1
      type: INT
    }
    domain: ""
  }
  node {
    input: "conv2d_62/convolution/dilation_rate:0"
    input: "conv2d_16/convolution/required_space_to_batch_paddings/mod_1:0"
    output: "conv2d_16/convolution/required_space_to_batch_paddings/add_2:0"
    name: "conv2d_16/convolution/required_space_to_batch_paddings/add_2"
    op_type: "Add"
  }
  node {
    input: "conv2d_16/convolution/required_space_to_batch_paddings/mod_1:0"
    input: "zero__2713"
    input: "const_ends__2170"
    input: "zero__2713"
    output: "conv2d_16/convolution/required_space_to_batch_paddings/strided_slice_6:0"
    name: "conv2d_16/convolution/required_space_to_batch_paddings/strided_slice_6"
    op_type: "Slice"
    domain: ""
  }
  node {
    input: "conv2d_16/convolution/required_space_to_batch_paddings/mod_1:0"
    input: "const_ends__2170"
    input: "const_ends__2332"
    input: "zero__2713"
    output: "conv2d_16/convolution/required_space_to_batch_paddings/strided_slice_7:0"
    name: "conv2d_16/convolution/required_space_to_batch_paddings/strided_slice_7"
    op_type: "Slice"
    domain: ""
  }
  node {
    input: "Div__821:0"
    input: "conv2d_62/convolution/dilation_rate:0"
    output: "Mul__822:0"
    name: "Mul__822"
    op_type: "Mul"
    domain: ""
  }
  node {
    input: "conv2d_transpose_3/Shape__634:0"
    input: "zero__2713"
    input: "const_ends__2170"
    input: "zero__2713"
    output: "conv2d_transpose_3/strided_slice:0"
    name: "conv2d_transpose_3/strided_slice"
    op_type: "Slice"
    domain: ""
  }
  node {
    input: "conv2d_transpose_3/Shape__634:0"
    input: "const_ends__2170"
    input: "const_ends__2332"
    input: "zero__2713"
    output: "conv2d_transpose_3/strided_slice_1:0"
    name: "conv2d_transpose_3/strided_slice_1"
    op_type: "Slice"
    domain: ""
  }
  node {
    input: "conv2d_transpose_3/Shape__634:0"
    input: "const_ends__2332"
    input: "const_ends__573"
    input: "zero__2713"
    output: "conv2d_transpose_3/strided_slice_2:0"
    name: "conv2d_transpose_3/strided_slice_2"
    op_type: "Slice"
    domain: ""
  }
  node {
    input: "Shape__653:0"
    input: "const_ends__2170"
    input: "const_ends__2332"
    input: "zero__2713"
    output: "Slice__658:0"
    name: "Slice__658"
    op_type: "Slice"
    domain: ""
  }
  node {
    input: "Shape__653:0"
    input: "const_ends__2332"
    input: "const_ends__573"
    input: "zero__2713"
    output: "Slice__662:0"
    name: "Slice__662"
    op_type: "Slice"
    domain: ""
  }
  node {
    input: "Shape__6401:0"
    input: "Const__7261"
    output: "conv2d_transpose_6/Shape:0"
    name: "Gather__6406"
    op_type: "Gather"
    domain: ""
  }
  node {
    input: "conv2d_transpose_6/conv2d_transpose:0"
    output: "Shape__6407:0"
    name: "Shape__6407"
    op_type: "Shape"
    domain: ""
  }
  node {
    input: "conv2d_42/BiasAdd:0"
    input: "conv2d_43/kernel/read:0"
    input: "conv2d_43/bias/read:0"
    output: "conv2d_43/BiasAdd:0"
    name: "conv2d_43/BiasAdd"
    op_type: "Conv"
    attribute {
      name: "dilations"
      ints: 1
      ints: 1
      type: INTS
    }
    attribute {
      name: "strides"
      ints: 1
      ints: 1
      type: INTS
    }
    attribute {
      name: "kernel_shape"
      ints: 3
      ints: 3
      type: INTS
    }
    attribute {
      name: "auto_pad"
      s: "SAME_UPPER"
      type: STRING
    }
    attribute {
      name: "group"
      i: 1
      type: INT
    }
    domain: ""
  }
  node {
    input: "fem9/BiasAdd:0"
    output: "fem9/Relu:0"
    name: "fem9/Relu"
    op_type: "Relu"
  }
  node {
    input: "conv2d_51/convolution/Shape__2917:0"
    input: "const_ends__2170"
    input: "const_ends__2332"
    input: "zero__2713"
    output: "conv2d_51/convolution/strided_slice:0"
    name: "conv2d_51/convolution/strided_slice"
    op_type: "Slice"
    domain: ""
  }
  node {
    input: "conv2d_51/convolution/Shape__2917:0"
    input: "const_ends__2332"
    input: "const_ends__573"
    input: "zero__2713"
    output: "conv2d_51/convolution/strided_slice_1:0"
    name: "conv2d_51/convolution/strided_slice_1"
    op_type: "Slice"
    domain: ""
  }
  node {
    input: "Shape__6591:0"
    input: "Const__7261"
    output: "conv2d_60/convolution/Shape:0"
    name: "Gather__6596"
    op_type: "Gather"
    domain: ""
  }
  node {
    input: "conv2d_66/BiasAdd:0"
    output: "conv2d_66/Relu:0"
    name: "conv2d_66/Relu"
    op_type: "Relu"
  }
  node {
    input: "conv2d_14/Sigmoid:0"
    input: "fem9/Relu:0"
    output: "concatenate_17/concat:0"
    name: "concatenate_17/concat"
    op_type: "Concat"
    attribute {
      name: "axis"
      i: 1
      type: INT
    }
  }
  node {
    input: "conv2d_16/convolution/required_space_to_batch_paddings/add_2:0"
    input: "zero__2713"
    input: "const_ends__2170"
    input: "zero__2713"
    output: "conv2d_16/convolution/required_space_to_batch_paddings/strided_slice_3:0"
    name: "conv2d_16/convolution/required_space_to_batch_paddings/strided_slice_3"
    op_type: "Slice"
    domain: ""
  }
  node {
    input: "conv2d_16/convolution/required_space_to_batch_paddings/add_2:0"
    input: "const_ends__2170"
    input: "const_ends__2332"
    input: "zero__2713"
    output: "conv2d_16/convolution/required_space_to_batch_paddings/strided_slice_5:0"
    name: "conv2d_16/convolution/required_space_to_batch_paddings/strided_slice_5"
    op_type: "Slice"
    domain: ""
  }
  node {
    input: "const_fold_opt__7567"
    input: "conv2d_16/convolution/required_space_to_batch_paddings/strided_slice_6:0"
    output: "conv2d_16/convolution/required_space_to_batch_paddings/crops/0_Concat__1278:0"
    name: "conv2d_16/convolution/required_space_to_batch_paddings/crops/0_Concat__1278"
    op_type: "Concat"
    attribute {
      name: "axis"
      i: 0
      type: INT
    }
    domain: ""
  }
  node {
    input: "const_fold_opt__7567"
    input: "conv2d_16/convolution/required_space_to_batch_paddings/strided_slice_7:0"
    output: "conv2d_16/convolution/required_space_to_batch_paddings/crops/1_Concat__1271:0"
    name: "conv2d_16/convolution/required_space_to_batch_paddings/crops/1_Concat__1271"
    op_type: "Concat"
    attribute {
      name: "axis"
      i: 0
      type: INT
    }
    domain: ""
  }
  node {
    input: "conv2d_25/convolution/required_space_to_batch_paddings/sub:0"
    input: "Mul__822:0"
    output: "conv2d_25/convolution/required_space_to_batch_paddings/mod_1:0"
    name: "conv2d_25/convolution/required_space_to_batch_paddings/mod_1"
    op_type: "Sub"
    domain: ""
  }
  node {
    input: "conv2d_transpose_3/strided_slice_1:0"
    output: "conv2d_transpose_3/strided_slice_1__642:0"
    name: "conv2d_transpose_3/strided_slice_1__642"
    op_type: "Squeeze"
    attribute {
      name: "axes"
      ints: 0
      type: INTS
    }
    domain: ""
  }
  node {
    input: "conv2d_transpose_3/strided_slice_2:0"
    output: "conv2d_transpose_3/strided_slice_2__638:0"
    name: "conv2d_transpose_3/strided_slice_2__638"
    op_type: "Squeeze"
    attribute {
      name: "axes"
      ints: 0
      type: INTS
    }
    domain: ""
  }
  node {
    input: "conv2d_transpose_6/Shape:0"
    output: "conv2d_transpose_6/Shape__437:0"
    name: "conv2d_transpose_6/Shape__437"
    op_type: "Cast"
    attribute {
      name: "to"
      i: 6
      type: INT
    }
  }
  node {
    input: "Shape__6407:0"
    input: "Const__7261"
    output: "Shape__456:0"
    name: "Gather__6410"
    op_type: "Gather"
    domain: ""
  }
  node {
    input: "conv2d_41/Relu:0"
    input: "conv2d_43/BiasAdd:0"
    output: "add_1/add:0"
    name: "add_1/add"
    op_type: "Add"
  }
  node {
    input: "fem9/Relu:0"
    input: "fem10/kernel/read:0"
    input: "fem10/bias/read:0"
    output: "fem10/BiasAdd:0"
    name: "fem10/BiasAdd"
    op_type: "Conv"
    attribute {
      name: "dilations"
      ints: 1
      ints: 1
      type: INTS
    }
    attribute {
      name: "strides"
      ints: 1
      ints: 1
      type: INTS
    }
    attribute {
      name: "kernel_shape"
      ints: 3
      ints: 3
      type: INTS
    }
    attribute {
      name: "auto_pad"
      s: "SAME_UPPER"
      type: STRING
    }
    attribute {
      name: "group"
      i: 1
      type: INT
    }
    domain: ""
  }
  node {
    input: "conv2d_51/convolution/strided_slice:0"
    input: "conv2d_51/convolution/strided_slice_1:0"
    output: "conv2d_51/convolution/stack_1_Concat__2928:0"
    name: "conv2d_51/convolution/stack_1_Concat__2928"
    op_type: "Concat"
    attribute {
      name: "axis"
      i: 0
      type: INT
    }
    domain: ""
  }
  node {
    input: "conv2d_60/convolution/Shape:0"
    output: "conv2d_60/convolution/Shape__2475:0"
    name: "conv2d_60/convolution/Shape__2475"
    op_type: "Cast"
    attribute {
      name: "to"
      i: 6
      type: INT
    }
  }
  node {
    input: "conv2d_66/Relu:0"
    input: "conv2d_67/kernel/read:0"
    input: "conv2d_67/bias/read:0"
    output: "conv2d_67/BiasAdd:0"
    name: "conv2d_67/BiasAdd"
    op_type: "Conv"
    attribute {
      name: "dilations"
      ints: 1
      ints: 1
      type: INTS
    }
    attribute {
      name: "strides"
      ints: 1
      ints: 1
      type: INTS
    }
    attribute {
      name: "kernel_shape"
      ints: 7
      ints: 7
      type: INTS
    }
    attribute {
      name: "group"
      i: 1
      type: INT
    }
    domain: ""
  }
  node {
    input: "concatenate_17/concat:0"
    input: "conv2d_70/kernel/read:0"
    input: "conv2d_70/bias/read:0"
    output: "conv2d_70/BiasAdd:0"
    name: "conv2d_70/BiasAdd"
    op_type: "Conv"
    attribute {
      name: "dilations"
      ints: 1
      ints: 1
      type: INTS
    }
    attribute {
      name: "strides"
      ints: 1
      ints: 1
      type: INTS
    }
    attribute {
      name: "kernel_shape"
      ints: 3
      ints: 3
      type: INTS
    }
    attribute {
      name: "auto_pad"
      s: "SAME_UPPER"
      type: STRING
    }
    attribute {
      name: "group"
      i: 1
      type: INT
    }
    domain: ""
  }
  node {
    input: "const_fold_opt__7564"
    input: "conv2d_16/convolution/required_space_to_batch_paddings/strided_slice_3:0"
    output: "conv2d_16/convolution/required_space_to_batch_paddings/paddings/0_Concat__1295:0"
    name: "conv2d_16/convolution/required_space_to_batch_paddings/paddings/0_Concat__1295"
    op_type: "Concat"
    attribute {
      name: "axis"
      i: 0
      type: INT
    }
    domain: ""
  }
  node {
    input: "const_fold_opt__7564"
    input: "conv2d_16/convolution/required_space_to_batch_paddings/strided_slice_5:0"
    output: "conv2d_16/convolution/required_space_to_batch_paddings/paddings/1_Concat__1288:0"
    name: "conv2d_16/convolution/required_space_to_batch_paddings/paddings/1_Concat__1288"
    op_type: "Concat"
    attribute {
      name: "axis"
      i: 0
      type: INT
    }
    domain: ""
  }
  node {
    input: "conv2d_16/convolution/required_space_to_batch_paddings/crops/0_Concat__1278:0"
    output: "conv2d_16/convolution/required_space_to_batch_paddings/crops_Unsqueeze__1279:0"
    name: "conv2d_16/convolution/required_space_to_batch_paddings/crops_Unsqueeze__1279"
    op_type: "Unsqueeze"
    attribute {
      name: "axes"
      ints: 0
      type: INTS
    }
    domain: ""
  }
  node {
    input: "conv2d_16/convolution/required_space_to_batch_paddings/crops/1_Concat__1271:0"
    output: "conv2d_16/convolution/required_space_to_batch_paddings/crops_Unsqueeze__1280:0"
    name: "conv2d_16/convolution/required_space_to_batch_paddings/crops_Unsqueeze__1280"
    op_type: "Unsqueeze"
    attribute {
      name: "axes"
      ints: 0
      type: INTS
    }
    domain: ""
  }
  node {
    input: "conv2d_52/convolution/required_space_to_batch_paddings/strided_slice_1:0"
    input: "conv2d_25/convolution/required_space_to_batch_paddings/mod_1:0"
    output: "conv2d_25/convolution/required_space_to_batch_paddings/add_2:0"
    name: "conv2d_25/convolution/required_space_to_batch_paddings/add_2"
    op_type: "Add"
  }
  node {
    input: "conv2d_25/convolution/required_space_to_batch_paddings/mod_1:0"
    input: "zero__2713"
    input: "const_ends__2170"
    input: "zero__2713"
    output: "conv2d_25/convolution/required_space_to_batch_paddings/strided_slice_6:0"
    name: "conv2d_25/convolution/required_space_to_batch_paddings/strided_slice_6"
    op_type: "Slice"
    domain: ""
  }
  node {
    input: "conv2d_25/convolution/required_space_to_batch_paddings/mod_1:0"
    input: "const_ends__2170"
    input: "const_ends__2332"
    input: "zero__2713"
    output: "conv2d_25/convolution/required_space_to_batch_paddings/strided_slice_7:0"
    name: "conv2d_25/convolution/required_space_to_batch_paddings/strided_slice_7"
    op_type: "Slice"
    domain: ""
  }
  node {
    input: "conv2d_transpose_3/strided_slice_1__642:0"
    input: "conv2d_transpose_4/add/y:0"
    output: "conv2d_transpose_3/add:0"
    name: "conv2d_transpose_3/add"
    op_type: "Add"
  }
  node {
    input: "conv2d_transpose_3/strided_slice_2__638:0"
    input: "conv2d_transpose_4/add/y:0"
    output: "conv2d_transpose_3/add_1:0"
    name: "conv2d_transpose_3/add_1"
    op_type: "Add"
  }
  node {
    input: "conv2d_transpose_6/Shape__437:0"
    input: "zero__2713"
    input: "const_ends__2170"
    input: "zero__2713"
    output: "conv2d_transpose_6/strided_slice:0"
    name: "conv2d_transpose_6/strided_slice"
    op_type: "Slice"
    domain: ""
  }
  node {
    input: "conv2d_transpose_6/Shape__437:0"
    input: "const_ends__2170"
    input: "const_ends__2332"
    input: "zero__2713"
    output: "conv2d_transpose_6/strided_slice_1:0"
    name: "conv2d_transpose_6/strided_slice_1"
    op_type: "Slice"
    domain: ""
  }
  node {
    input: "conv2d_transpose_6/Shape__437:0"
    input: "const_ends__2332"
    input: "const_ends__573"
    input: "zero__2713"
    output: "conv2d_transpose_6/strided_slice_2:0"
    name: "conv2d_transpose_6/strided_slice_2"
    op_type: "Slice"
    domain: ""
  }
  node {
    input: "Shape__456:0"
    input: "const_ends__2170"
    input: "const_ends__2332"
    input: "zero__2713"
    output: "Slice__461:0"
    name: "Slice__461"
    op_type: "Slice"
    domain: ""
  }
  node {
    input: "Shape__456:0"
    input: "const_ends__2332"
    input: "const_ends__573"
    input: "zero__2713"
    output: "Slice__465:0"
    name: "Slice__465"
    op_type: "Slice"
    domain: ""
  }
  node {
    input: "add_1/add:0"
    output: "activation_1/Relu:0"
    name: "activation_1/Relu"
    op_type: "Relu"
  }
  node {
    input: "fem10/BiasAdd:0"
    output: "fem10/Relu:0"
    name: "fem10/Relu"
    op_type: "Relu"
  }
  node {
    input: "conv2d_51/convolution/stack_1_Concat__2928:0"
    input: "conv2d_52/convolution/required_space_to_batch_paddings/strided_slice_1:0"
    output: "conv2d_51/convolution/required_space_to_batch_paddings/add_1:0"
    name: "conv2d_51/convolution/required_space_to_batch_paddings/add_1"
    op_type: "Add"
  }
  node {
    input: "conv2d_60/convolution/Shape__2475:0"
    input: "const_ends__2170"
    input: "const_ends__2332"
    input: "zero__2713"
    output: "conv2d_60/convolution/strided_slice:0"
    name: "conv2d_60/convolution/strided_slice"
    op_type: "Slice"
    domain: ""
  }
  node {
    input: "conv2d_60/convolution/Shape__2475:0"
    input: "const_ends__2332"
    input: "const_ends__573"
    input: "zero__2713"
    output: "conv2d_60/convolution/strided_slice_1:0"
    name: "conv2d_60/convolution/strided_slice_1"
    op_type: "Slice"
    domain: ""
  }
  node {
    input: "conv2d_67/BiasAdd:0"
    output: "conv2d_67/Relu:0"
    name: "conv2d_67/Relu"
    op_type: "Relu"
  }
  node {
    input: "conv2d_70/BiasAdd:0"
    output: "conv2d_70/Relu:0"
    name: "conv2d_70/Relu"
    op_type: "Relu"
  }
  node {
    input: "conv2d_14/Sigmoid:0"
    input: "fem10/Relu:0"
    output: "concatenate_20/concat:0"
    name: "concatenate_20/concat"
    op_type: "Concat"
    attribute {
      name: "axis"
      i: 1
      type: INT
    }
  }
  node {
    input: "conv2d_16/convolution/required_space_to_batch_paddings/paddings/0_Concat__1295:0"
    output: "conv2d_16/convolution/required_space_to_batch_paddings/paddings_Unsqueeze__1296:0"
    name: "conv2d_16/convolution/required_space_to_batch_paddings/paddings_Unsqueeze__1296"
    op_type: "Unsqueeze"
    attribute {
      name: "axes"
      ints: 0
      type: INTS
    }
    domain: ""
  }
  node {
    input: "conv2d_16/convolution/required_space_to_batch_paddings/paddings/1_Concat__1288:0"
    output: "conv2d_16/convolution/required_space_to_batch_paddings/paddings_Unsqueeze__1297:0"
    name: "conv2d_16/convolution/required_space_to_batch_paddings/paddings_Unsqueeze__1297"
    op_type: "Unsqueeze"
    attribute {
      name: "axes"
      ints: 0
      type: INTS
    }
    domain: ""
  }
  node {
    input: "conv2d_16/convolution/required_space_to_batch_paddings/crops_Unsqueeze__1279:0"
    input: "conv2d_16/convolution/required_space_to_batch_paddings/crops_Unsqueeze__1280:0"
    output: "conv2d_16/convolution/required_space_to_batch_paddings/crops_Concat__1281:0"
    name: "conv2d_16/convolution/required_space_to_batch_paddings/crops_Concat__1281"
    op_type: "Concat"
    attribute {
      name: "axis"
      i: 0
      type: INT
    }
    domain: ""
  }
  node {
    input: "conv2d_25/convolution/required_space_to_batch_paddings/add_2:0"
    input: "zero__2713"
    input: "const_ends__2170"
    input: "zero__2713"
    output: "conv2d_25/convolution/required_space_to_batch_paddings/strided_slice_3:0"
    name: "conv2d_25/convolution/required_space_to_batch_paddings/strided_slice_3"
    op_type: "Slice"
    domain: ""
  }
  node {
    input: "conv2d_25/convolution/required_space_to_batch_paddings/add_2:0"
    input: "const_ends__2170"
    input: "const_ends__2332"
    input: "zero__2713"
    output: "conv2d_25/convolution/required_space_to_batch_paddings/strided_slice_5:0"
    name: "conv2d_25/convolution/required_space_to_batch_paddings/strided_slice_5"
    op_type: "Slice"
    domain: ""
  }
  node {
    input: "const_fold_opt__7567"
    input: "conv2d_25/convolution/required_space_to_batch_paddings/strided_slice_6:0"
    output: "conv2d_25/convolution/required_space_to_batch_paddings/crops/0_Concat__836:0"
    name: "conv2d_25/convolution/required_space_to_batch_paddings/crops/0_Concat__836"
    op_type: "Concat"
    attribute {
      name: "axis"
      i: 0
      type: INT
    }
    domain: ""
  }
  node {
    input: "const_fold_opt__7567"
    input: "conv2d_25/convolution/required_space_to_batch_paddings/strided_slice_7:0"
    output: "conv2d_25/convolution/required_space_to_batch_paddings/crops/1_Concat__829:0"
    name: "conv2d_25/convolution/required_space_to_batch_paddings/crops/1_Concat__829"
    op_type: "Concat"
    attribute {
      name: "axis"
      i: 0
      type: INT
    }
    domain: ""
  }
  node {
    input: "conv2d_transpose_3/add:0"
    output: "conv2d_transpose_3/stack_Unsqueeze__648:0"
    name: "conv2d_transpose_3/stack_Unsqueeze__648"
    op_type: "Unsqueeze"
    attribute {
      name: "axes"
      ints: 0
      type: INTS
    }
    domain: ""
  }
  node {
    input: "conv2d_transpose_3/add_1:0"
    output: "conv2d_transpose_3/stack_Unsqueeze__649:0"
    name: "conv2d_transpose_3/stack_Unsqueeze__649"
    op_type: "Unsqueeze"
    attribute {
      name: "axes"
      ints: 0
      type: INTS
    }
    domain: ""
  }
  node {
    input: "conv2d_transpose_6/strided_slice_1:0"
    output: "conv2d_transpose_6/strided_slice_1__445:0"
    name: "conv2d_transpose_6/strided_slice_1__445"
    op_type: "Squeeze"
    attribute {
      name: "axes"
      ints: 0
      type: INTS
    }
    domain: ""
  }
  node {
    input: "conv2d_transpose_6/strided_slice_2:0"
    output: "conv2d_transpose_6/strided_slice_2__441:0"
    name: "conv2d_transpose_6/strided_slice_2__441"
    op_type: "Squeeze"
    attribute {
      name: "axes"
      ints: 0
      type: INTS
    }
    domain: ""
  }
  node {
    input: "activation_1/Relu:0"
    input: "conv2d_44/kernel/read:0"
    input: "conv2d_44/bias/read:0"
    output: "conv2d_44/BiasAdd:0"
    name: "conv2d_44/BiasAdd"
    op_type: "Conv"
    attribute {
      name: "dilations"
      ints: 1
      ints: 1
      type: INTS
    }
    attribute {
      name: "strides"
      ints: 1
      ints: 1
      type: INTS
    }
    attribute {
      name: "kernel_shape"
      ints: 3
      ints: 3
      type: INTS
    }
    attribute {
      name: "auto_pad"
      s: "SAME_UPPER"
      type: STRING
    }
    attribute {
      name: "group"
      i: 1
      type: INT
    }
    domain: ""
  }
  node {
    input: "conv2d_51/convolution/required_space_to_batch_paddings/add_1:0"
    input: "conv2d_62/convolution/dilation_rate:0"
    output: "Div__2929:0"
    name: "Div__2929"
    op_type: "Div"
    domain: ""
  }
  node {
    input: "conv2d_60/convolution/strided_slice:0"
    input: "conv2d_60/convolution/strided_slice_1:0"
    output: "conv2d_60/convolution/stack_1_Concat__2486:0"
    name: "conv2d_60/convolution/stack_1_Concat__2486"
    op_type: "Concat"
    attribute {
      name: "axis"
      i: 0
      type: INT
    }
    domain: ""
  }
  node {
    input: "conv2d_67/Relu:0"
    input: "conv2d_68/kernel/read:0"
    input: "conv2d_68/bias/read:0"
    output: "conv2d_68/BiasAdd:0"
    name: "conv2d_68/BiasAdd"
    op_type: "Conv"
    attribute {
      name: "dilations"
      ints: 1
      ints: 1
      type: INTS
    }
    attribute {
      name: "strides"
      ints: 1
      ints: 1
      type: INTS
    }
    attribute {
      name: "kernel_shape"
      ints: 7
      ints: 7
      type: INTS
    }
    attribute {
      name: "group"
      i: 1
      type: INT
    }
    domain: ""
  }
  node {
    input: "conv2d_70/Relu:0"
    input: "conv2d_71/kernel/read:0"
    input: "conv2d_71/bias/read:0"
    output: "conv2d_71/BiasAdd:0"
    name: "conv2d_71/BiasAdd"
    op_type: "Conv"
    attribute {
      name: "dilations"
      ints: 1
      ints: 1
      type: INTS
    }
    attribute {
      name: "strides"
      ints: 1
      ints: 1
      type: INTS
    }
    attribute {
      name: "kernel_shape"
      ints: 5
      ints: 5
      type: INTS
    }
    attribute {
      name: "group"
      i: 1
      type: INT
    }
    domain: ""
  }
  node {
    input: "concatenate_20/concat:0"
    input: "conv2d_74/kernel/read:0"
    input: "conv2d_74/bias/read:0"
    output: "conv2d_74/BiasAdd:0"
    name: "conv2d_74/BiasAdd"
    op_type: "Conv"
    attribute {
      name: "dilations"
      ints: 1
      ints: 1
      type: INTS
    }
    attribute {
      name: "strides"
      ints: 1
      ints: 1
      type: INTS
    }
    attribute {
      name: "kernel_shape"
      ints: 3
      ints: 3
      type: INTS
    }
    attribute {
      name: "auto_pad"
      s: "SAME_UPPER"
      type: STRING
    }
    attribute {
      name: "group"
      i: 1
      type: INT
    }
    domain: ""
  }
  node {
    input: "conv2d_16/convolution/required_space_to_batch_paddings/paddings_Unsqueeze__1296:0"
    input: "conv2d_16/convolution/required_space_to_batch_paddings/paddings_Unsqueeze__1297:0"
    output: "conv2d_16/convolution/required_space_to_batch_paddings/paddings_Concat__1298:0"
    name: "conv2d_16/convolution/required_space_to_batch_paddings/paddings_Concat__1298"
    op_type: "Concat"
    attribute {
      name: "axis"
      i: 0
      type: INT
    }
    domain: ""
  }
  node {
    input: "conv2d_16/convolution/required_space_to_batch_paddings/crops_Concat__1281:0"
    input: "shape__1563"
    output: "Reshape__1348:0"
    name: "Reshape__1348"
    op_type: "Reshape"
    domain: ""
  }
  node {
    input: "const_fold_opt__7592"
    input: "conv2d_25/convolution/required_space_to_batch_paddings/strided_slice_3:0"
    output: "conv2d_25/convolution/required_space_to_batch_paddings/paddings/0_Concat__853:0"
    name: "conv2d_25/convolution/required_space_to_batch_paddings/paddings/0_Concat__853"
    op_type: "Concat"
    attribute {
      name: "axis"
      i: 0
      type: INT
    }
    domain: ""
  }
  node {
    input: "const_fold_opt__7592"
    input: "conv2d_25/convolution/required_space_to_batch_paddings/strided_slice_5:0"
    output: "conv2d_25/convolution/required_space_to_batch_paddings/paddings/1_Concat__846:0"
    name: "conv2d_25/convolution/required_space_to_batch_paddings/paddings/1_Concat__846"
    op_type: "Concat"
    attribute {
      name: "axis"
      i: 0
      type: INT
    }
    domain: ""
  }
  node {
    input: "conv2d_25/convolution/required_space_to_batch_paddings/crops/0_Concat__836:0"
    output: "conv2d_25/convolution/required_space_to_batch_paddings/crops_Unsqueeze__837:0"
    name: "conv2d_25/convolution/required_space_to_batch_paddings/crops_Unsqueeze__837"
    op_type: "Unsqueeze"
    attribute {
      name: "axes"
      ints: 0
      type: INTS
    }
    domain: ""
  }
  node {
    input: "conv2d_25/convolution/required_space_to_batch_paddings/crops/1_Concat__829:0"
    output: "conv2d_25/convolution/required_space_to_batch_paddings/crops_Unsqueeze__838:0"
    name: "conv2d_25/convolution/required_space_to_batch_paddings/crops_Unsqueeze__838"
    op_type: "Unsqueeze"
    attribute {
      name: "axes"
      ints: 0
      type: INTS
    }
    domain: ""
  }
  node {
    input: "conv2d_transpose_3/strided_slice:0"
    input: "conv2d_transpose_3/stack_Unsqueeze__648:0"
    input: "conv2d_transpose_3/stack_Unsqueeze__649:0"
    input: "const_fold_opt__7487"
    output: "conv2d_transpose_3/stack_Concat__651:0"
    name: "conv2d_transpose_3/stack_Concat__651"
    op_type: "Concat"
    attribute {
      name: "axis"
      i: 0
      type: INT
    }
    domain: ""
  }
  node {
    input: "conv2d_transpose_6/strided_slice_1__445:0"
    input: "conv2d_transpose_7/add/y:0"
    output: "conv2d_transpose_6/add:0"
    name: "conv2d_transpose_6/add"
    op_type: "Add"
  }
  node {
    input: "conv2d_transpose_6/strided_slice_2__441:0"
    input: "conv2d_transpose_7/add/y:0"
    output: "conv2d_transpose_6/add_1:0"
    name: "conv2d_transpose_6/add_1"
    op_type: "Add"
  }
  node {
    input: "conv2d_44/BiasAdd:0"
    input: "conv2d_45/kernel/read:0"
    input: "conv2d_45/bias/read:0"
    output: "conv2d_45/BiasAdd:0"
    name: "conv2d_45/BiasAdd"
    op_type: "Conv"
    attribute {
      name: "dilations"
      ints: 1
      ints: 1
      type: INTS
    }
    attribute {
      name: "strides"
      ints: 1
      ints: 1
      type: INTS
    }
    attribute {
      name: "kernel_shape"
      ints: 3
      ints: 3
      type: INTS
    }
    attribute {
      name: "auto_pad"
      s: "SAME_UPPER"
      type: STRING
    }
    attribute {
      name: "group"
      i: 1
      type: INT
    }
    domain: ""
  }
  node {
    input: "Div__2929:0"
    input: "conv2d_62/convolution/dilation_rate:0"
    output: "Mul__2930:0"
    name: "Mul__2930"
    op_type: "Mul"
    domain: ""
  }
  node {
    input: "conv2d_60/convolution/stack_1_Concat__2486:0"
    input: "conv2d_25/convolution/required_space_to_batch_paddings/add:0"
    output: "conv2d_60/convolution/required_space_to_batch_paddings/add_1:0"
    name: "conv2d_60/convolution/required_space_to_batch_paddings/add_1"
    op_type: "Add"
  }
  node {
    input: "conv2d_68/BiasAdd:0"
    output: "conv2d_68/Relu:0"
    name: "conv2d_68/Relu"
    op_type: "Relu"
  }
  node {
    input: "conv2d_71/BiasAdd:0"
    output: "conv2d_71/Relu:0"
    name: "conv2d_71/Relu"
    op_type: "Relu"
  }
  node {
    input: "conv2d_74/BiasAdd:0"
    output: "conv2d_74/Relu:0"
    name: "conv2d_74/Relu"
    op_type: "Relu"
  }
  node {
    input: "conv2d_16/convolution/required_space_to_batch_paddings/paddings_Concat__1298:0"
    input: "shape__1563"
    output: "Reshape__1308:0"
    name: "Reshape__1308"
    op_type: "Reshape"
    domain: ""
  }
  node {
    input: "Reshape__1348:0"
    output: "Cast__1349:0"
    name: "Cast__1349"
    op_type: "Cast"
    attribute {
      name: "to"
      i: 7
      type: INT
    }
    domain: ""
  }
  node {
    input: "conv2d_25/convolution/required_space_to_batch_paddings/paddings/0_Concat__853:0"
    output: "conv2d_25/convolution/required_space_to_batch_paddings/paddings_Unsqueeze__854:0"
    name: "conv2d_25/convolution/required_space_to_batch_paddings/paddings_Unsqueeze__854"
    op_type: "Unsqueeze"
    attribute {
      name: "axes"
      ints: 0
      type: INTS
    }
    domain: ""
  }
  node {
    input: "conv2d_25/convolution/required_space_to_batch_paddings/paddings/1_Concat__846:0"
    output: "conv2d_25/convolution/required_space_to_batch_paddings/paddings_Unsqueeze__855:0"
    name: "conv2d_25/convolution/required_space_to_batch_paddings/paddings_Unsqueeze__855"
    op_type: "Unsqueeze"
    attribute {
      name: "axes"
      ints: 0
      type: INTS
    }
    domain: ""
  }
  node {
    input: "conv2d_25/convolution/required_space_to_batch_paddings/crops_Unsqueeze__837:0"
    input: "conv2d_25/convolution/required_space_to_batch_paddings/crops_Unsqueeze__838:0"
    output: "conv2d_25/convolution/required_space_to_batch_paddings/crops_Concat__839:0"
    name: "conv2d_25/convolution/required_space_to_batch_paddings/crops_Concat__839"
    op_type: "Concat"
    attribute {
      name: "axis"
      i: 0
      type: INT
    }
    domain: ""
  }
  node {
    input: "conv2d_transpose_3/stack_Concat__651:0"
    output: "Cast__652:0"
    name: "Cast__652"
    op_type: "Cast"
    attribute {
      name: "to"
      i: 7
      type: INT
    }
    domain: ""
  }
  node {
    input: "conv2d_transpose_6/add:0"
    output: "conv2d_transpose_6/stack_Unsqueeze__451:0"
    name: "conv2d_transpose_6/stack_Unsqueeze__451"
    op_type: "Unsqueeze"
    attribute {
      name: "axes"
      ints: 0
      type: INTS
    }
    domain: ""
  }
  node {
    input: "conv2d_transpose_6/add_1:0"
    output: "conv2d_transpose_6/stack_Unsqueeze__452:0"
    name: "conv2d_transpose_6/stack_Unsqueeze__452"
    op_type: "Unsqueeze"
    attribute {
      name: "axes"
      ints: 0
      type: INTS
    }
    domain: ""
  }
  node {
    input: "activation_1/Relu:0"
    input: "conv2d_45/BiasAdd:0"
    output: "add_2/add:0"
    name: "add_2/add"
    op_type: "Add"
  }
  node {
    input: "conv2d_51/convolution/required_space_to_batch_paddings/add_1:0"
    input: "Mul__2930:0"
    output: "conv2d_51/convolution/required_space_to_batch_paddings/mod:0"
    name: "conv2d_51/convolution/required_space_to_batch_paddings/mod"
    op_type: "Sub"
    domain: ""
  }
  node {
    input: "conv2d_60/convolution/required_space_to_batch_paddings/add_1:0"
    input: "conv2d_62/convolution/dilation_rate:0"
    output: "Div__2487:0"
    name: "Div__2487"
    op_type: "Div"
    domain: ""
  }
  node {
    input: "conv2d_68/Relu:0"
    input: "conv2d_69/kernel/read:0"
    input: "conv2d_69/bias/read:0"
    output: "conv2d_69/BiasAdd:0"
    name: "conv2d_69/BiasAdd"
    op_type: "Conv"
    attribute {
      name: "dilations"
      ints: 1
      ints: 1
      type: INTS
    }
    attribute {
      name: "strides"
      ints: 1
      ints: 1
      type: INTS
    }
    attribute {
      name: "kernel_shape"
      ints: 7
      ints: 7
      type: INTS
    }
    attribute {
      name: "group"
      i: 1
      type: INT
    }
    domain: ""
  }
  node {
    input: "conv2d_71/Relu:0"
    input: "conv2d_72/kernel/read:0"
    input: "conv2d_72/bias/read:0"
    output: "conv2d_72/BiasAdd:0"
    name: "conv2d_72/BiasAdd"
    op_type: "Conv"
    attribute {
      name: "dilations"
      ints: 1
      ints: 1
      type: INTS
    }
    attribute {
      name: "strides"
      ints: 1
      ints: 1
      type: INTS
    }
    attribute {
      name: "kernel_shape"
      ints: 5
      ints: 5
      type: INTS
    }
    attribute {
      name: "group"
      i: 1
      type: INT
    }
    domain: ""
  }
  node {
    input: "conv2d_74/Relu:0"
    input: "conv2d_75/kernel/read:0"
    input: "conv2d_75/bias/read:0"
    output: "conv2d_75/BiasAdd:0"
    name: "conv2d_75/BiasAdd"
    op_type: "Conv"
    attribute {
      name: "dilations"
      ints: 1
      ints: 1
      type: INTS
    }
    attribute {
      name: "strides"
      ints: 2
      ints: 2
      type: INTS
    }
    attribute {
      name: "kernel_shape"
      ints: 3
      ints: 3
      type: INTS
    }
    attribute {
      name: "auto_pad"
      s: "SAME_UPPER"
      type: STRING
    }
    attribute {
      name: "group"
      i: 1
      type: INT
    }
    domain: ""
  }
  node {
    input: "Reshape__1308:0"
    output: "Cast__1309:0"
    name: "Cast__1309"
    op_type: "Cast"
    attribute {
      name: "to"
      i: 7
      type: INT
    }
    domain: ""
  }
  node {
    input: "Cast__1349:0"
    output: "Split__1350:0"
    output: "Split__1350:1"
    output: "Split__1350:2"
    output: "Split__1350:3"
    name: "Split__1350"
    op_type: "Split"
    domain: ""
  }
  node {
    input: "conv2d_25/convolution/required_space_to_batch_paddings/paddings_Unsqueeze__854:0"
    input: "conv2d_25/convolution/required_space_to_batch_paddings/paddings_Unsqueeze__855:0"
    output: "conv2d_25/convolution/required_space_to_batch_paddings/paddings_Concat__856:0"
    name: "conv2d_25/convolution/required_space_to_batch_paddings/paddings_Concat__856"
    op_type: "Concat"
    attribute {
      name: "axis"
      i: 0
      type: INT
    }
    domain: ""
  }
  node {
    input: "conv2d_25/convolution/required_space_to_batch_paddings/crops_Concat__839:0"
    input: "shape__1563"
    output: "Reshape__906:0"
    name: "Reshape__906"
    op_type: "Reshape"
    domain: ""
  }
  node {
    input: "Cast__652:0"
    input: "const_ends__2170"
    input: "const_ends__2332"
    input: "zero__2713"
    output: "Slice__666:0"
    name: "Slice__666"
    op_type: "Slice"
    domain: ""
  }
  node {
    input: "Cast__652:0"
    input: "const_ends__2332"
    input: "const_ends__573"
    input: "zero__2713"
    output: "Slice__670:0"
    name: "Slice__670"
    op_type: "Slice"
    domain: ""
  }
  node {
    input: "conv2d_transpose_6/strided_slice:0"
    input: "conv2d_transpose_6/stack_Unsqueeze__451:0"
    input: "conv2d_transpose_6/stack_Unsqueeze__452:0"
    input: "const_fold_opt__7487"
    output: "conv2d_transpose_6/stack_Concat__454:0"
    name: "conv2d_transpose_6/stack_Concat__454"
    op_type: "Concat"
    attribute {
      name: "axis"
      i: 0
      type: INT
    }
    domain: ""
  }
  node {
    input: "add_2/add:0"
    output: "activation_2/Relu:0"
    name: "activation_2/Relu"
    op_type: "Relu"
  }
  node {
    input: "conv2d_62/convolution/dilation_rate:0"
    input: "conv2d_51/convolution/required_space_to_batch_paddings/mod:0"
    output: "conv2d_51/convolution/required_space_to_batch_paddings/sub:0"
    name: "conv2d_51/convolution/required_space_to_batch_paddings/sub"
    op_type: "Sub"
  }
  node {
    input: "Div__2487:0"
    input: "conv2d_62/convolution/dilation_rate:0"
    output: "Mul__2488:0"
    name: "Mul__2488"
    op_type: "Mul"
    domain: ""
  }
  node {
    input: "conv2d_69/BiasAdd:0"
    output: "conv2d_69/Relu:0"
    name: "conv2d_69/Relu"
    op_type: "Relu"
  }
  node {
    input: "conv2d_72/BiasAdd:0"
    output: "conv2d_72/Relu:0"
    name: "conv2d_72/Relu"
    op_type: "Relu"
  }
  node {
    input: "conv2d_75/BiasAdd:0"
    output: "conv2d_75/Relu:0"
    name: "conv2d_75/Relu"
    op_type: "Relu"
  }
  node {
    input: "Cast__1309:0"
    output: "Split__1310:0"
    output: "Split__1310:1"
    output: "Split__1310:2"
    output: "Split__1310:3"
    name: "Split__1310"
    op_type: "Split"
    domain: ""
  }
  node {
    input: "Split__1350:0"
    input: "Split__1350:2"
    output: "Concat__1353:0"
    name: "Concat__1353"
    op_type: "Concat"
    attribute {
      name: "axis"
      i: 0
      type: INT
    }
    domain: ""
  }
  node {
    input: "Split__1350:1"
    input: "zero__2713"
    output: "Equal__1354:0"
    name: "Equal__1354"
    op_type: "Equal"
    domain: ""
  }
  node {
    input: "Split__1350:3"
    input: "zero__2713"
    output: "Equal__1362:0"
    name: "Equal__1362"
    op_type: "Equal"
    domain: ""
  }
  node {
    input: "conv2d_25/convolution/required_space_to_batch_paddings/paddings_Concat__856:0"
    input: "shape__1563"
    output: "Reshape__866:0"
    name: "Reshape__866"
    op_type: "Reshape"
    domain: ""
  }
  node {
    input: "Reshape__906:0"
    output: "Cast__907:0"
    name: "Cast__907"
    op_type: "Cast"
    attribute {
      name: "to"
      i: 7
      type: INT
    }
    domain: ""
  }
  node {
    input: "Slice__658:0"
    input: "Slice__666:0"
    output: "Sub__671:0"
    name: "Sub__671"
    op_type: "Sub"
    domain: ""
  }
  node {
    input: "Slice__662:0"
    input: "Slice__670:0"
    output: "Sub__672:0"
    name: "Sub__672"
    op_type: "Sub"
    domain: ""
  }
  node {
    input: "conv2d_transpose_6/stack_Concat__454:0"
    output: "Cast__455:0"
    name: "Cast__455"
    op_type: "Cast"
    attribute {
      name: "to"
      i: 7
      type: INT
    }
    domain: ""
  }
  node {
    input: "activation_2/Relu:0"
    input: "conv2d_46/kernel/read:0"
    input: "conv2d_46/bias/read:0"
    output: "conv2d_46/BiasAdd:0"
    name: "conv2d_46/BiasAdd"
    op_type: "Conv"
    attribute {
      name: "dilations"
      ints: 1
      ints: 1
      type: INTS
    }
    attribute {
      name: "strides"
      ints: 1
      ints: 1
      type: INTS
    }
    attribute {
      name: "kernel_shape"
      ints: 3
      ints: 3
      type: INTS
    }
    attribute {
      name: "auto_pad"
      s: "SAME_UPPER"
      type: STRING
    }
    attribute {
      name: "group"
      i: 1
      type: INT
    }
    domain: ""
  }
  node {
    input: "conv2d_51/convolution/required_space_to_batch_paddings/sub:0"
    input: "conv2d_62/convolution/dilation_rate:0"
    output: "Div__2931:0"
    name: "Div__2931"
    op_type: "Div"
    domain: ""
  }
  node {
    input: "conv2d_60/convolution/required_space_to_batch_paddings/add_1:0"
    input: "Mul__2488:0"
    output: "conv2d_60/convolution/required_space_to_batch_paddings/mod:0"
    name: "conv2d_60/convolution/required_space_to_batch_paddings/mod"
    op_type: "Sub"
    domain: ""
  }
  node {
    input: "conv2d_69/Relu:0"
    output: "Shape__6567:0"
    name: "Shape__6567"
    op_type: "Shape"
    domain: ""
  }
  node {
    input: "conv2d_69/Relu:0"
    input: "conv2d_transpose_14/kernel/read:0"
    output: "conv2d_transpose_14/conv2d_transpose:0"
    name: "conv2d_transpose_14/conv2d_transpose"
    op_type: "ConvTranspose"
    attribute {
      name: "dilations"
      ints: 1
      ints: 1
      type: INTS
    }
    attribute {
      name: "strides"
      ints: 1
      ints: 1
      type: INTS
    }
    attribute {
      name: "kernel_shape"
      ints: 7
      ints: 7
      type: INTS
    }
  }
  node {
    input: "conv2d_72/Relu:0"
    input: "conv2d_73/kernel/read:0"
    input: "conv2d_73/bias/read:0"
    output: "conv2d_73/BiasAdd:0"
    name: "conv2d_73/BiasAdd"
    op_type: "Conv"
    attribute {
      name: "dilations"
      ints: 1
      ints: 1
      type: INTS
    }
    attribute {
      name: "strides"
      ints: 1
      ints: 1
      type: INTS
    }
    attribute {
      name: "kernel_shape"
      ints: 5
      ints: 5
      type: INTS
    }
    attribute {
      name: "group"
      i: 1
      type: INT
    }
    domain: ""
  }
  node {
    input: "conv2d_75/Relu:0"
    input: "conv2d_76/kernel/read:0"
    input: "conv2d_76/bias/read:0"
    output: "conv2d_76/BiasAdd:0"
    name: "conv2d_76/BiasAdd"
    op_type: "Conv"
    attribute {
      name: "dilations"
      ints: 1
      ints: 1
      type: INTS
    }
    attribute {
      name: "strides"
      ints: 2
      ints: 2
      type: INTS
    }
    attribute {
      name: "kernel_shape"
      ints: 3
      ints: 3
      type: INTS
    }
    attribute {
      name: "auto_pad"
      s: "SAME_UPPER"
      type: STRING
    }
    attribute {
      name: "group"
      i: 1
      type: INT
    }
    domain: ""
  }
  node {
    input: "zero__2713"
    input: "zero__2713"
    input: "Split__1310:0"
    input: "Split__1310:2"
    input: "zero__2713"
    input: "zero__2713"
    input: "Split__1310:1"
    input: "Split__1310:3"
    output: "Concat__1312:0"
    name: "Concat__1312"
    op_type: "Concat"
    attribute {
      name: "axis"
      i: 0
      type: INT
    }
    domain: ""
  }
  node {
    input: "Equal__1354:0"
    output: "Cast__1356:0"
    name: "Cast__1356"
    op_type: "Cast"
    attribute {
      name: "to"
      i: 7
      type: INT
    }
    domain: ""
  }
  node {
    input: "Equal__1354:0"
    output: "Not__1355:0"
    name: "Not__1355"
    op_type: "Not"
    domain: ""
  }
  node {
    input: "Equal__1362:0"
    output: "Cast__1364:0"
    name: "Cast__1364"
    op_type: "Cast"
    attribute {
      name: "to"
      i: 7
      type: INT
    }
    domain: ""
  }
  node {
    input: "Equal__1362:0"
    output: "Not__1363:0"
    name: "Not__1363"
    op_type: "Not"
    domain: ""
  }
  node {
    input: "Reshape__866:0"
    output: "Cast__867:0"
    name: "Cast__867"
    op_type: "Cast"
    attribute {
      name: "to"
      i: 7
      type: INT
    }
    domain: ""
  }
  node {
    input: "Cast__907:0"
    output: "Split__908:0"
    output: "Split__908:1"
    output: "Split__908:2"
    output: "Split__908:3"
    name: "Split__908"
    op_type: "Split"
    domain: ""
  }
  node {
    input: "Sub__671:0"
    input: "const_ends__2332"
    output: "Div__674:0"
    name: "Div__674"
    op_type: "Div"
    domain: ""
  }
  node {
    input: "Sub__672:0"
    input: "const_ends__2332"
    output: "Div__675:0"
    name: "Div__675"
    op_type: "Div"
    domain: ""
  }
  node {
    input: "Cast__455:0"
    input: "const_ends__2170"
    input: "const_ends__2332"
    input: "zero__2713"
    output: "Slice__469:0"
    name: "Slice__469"
    op_type: "Slice"
    domain: ""
  }
  node {
    input: "Cast__455:0"
    input: "const_ends__2332"
    input: "const_ends__573"
    input: "zero__2713"
    output: "Slice__473:0"
    name: "Slice__473"
    op_type: "Slice"
    domain: ""
  }
  node {
    input: "conv2d_46/BiasAdd:0"
    input: "conv2d_47/kernel/read:0"
    input: "conv2d_47/bias/read:0"
    output: "conv2d_47/BiasAdd:0"
    name: "conv2d_47/BiasAdd"
    op_type: "Conv"
    attribute {
      name: "dilations"
      ints: 1
      ints: 1
      type: INTS
    }
    attribute {
      name: "strides"
      ints: 1
      ints: 1
      type: INTS
    }
    attribute {
      name: "kernel_shape"
      ints: 3
      ints: 3
      type: INTS
    }
    attribute {
      name: "auto_pad"
      s: "SAME_UPPER"
      type: STRING
    }
    attribute {
      name: "group"
      i: 1
      type: INT
    }
    domain: ""
  }
  node {
    input: "Div__674:0"
    input: "Slice__666:0"
    output: "Add__676:0"
    name: "Add__676"
    op_type: "Add"
    domain: ""
  }
  node {
    input: "Div__675:0"
    input: "Slice__670:0"
    output: "Add__677:0"
    name: "Add__677"
    op_type: "Add"
    domain: ""
  }
  node {
    input: "Div__2931:0"
    input: "conv2d_62/convolution/dilation_rate:0"
    output: "Mul__2932:0"
    name: "Mul__2932"
    op_type: "Mul"
    domain: ""
  }
  node {
    input: "conv2d_62/convolution/dilation_rate:0"
    input: "conv2d_60/convolution/required_space_to_batch_paddings/mod:0"
    output: "conv2d_60/convolution/required_space_to_batch_paddings/sub:0"
    name: "conv2d_60/convolution/required_space_to_batch_paddings/sub"
    op_type: "Sub"
  }
  node {
    input: "Shape__6567:0"
    input: "Const__7261"
    output: "conv2d_transpose_14/Shape:0"
    name: "Gather__6572"
    op_type: "Gather"
    domain: ""
  }
  node {
    input: "conv2d_transpose_14/conv2d_transpose:0"
    output: "Shape__6573:0"
    name: "Shape__6573"
    op_type: "Shape"
    domain: ""
  }
  node {
    input: "conv2d_73/BiasAdd:0"
    output: "conv2d_73/Relu:0"
    name: "conv2d_73/Relu"
    op_type: "Relu"
  }
  node {
    input: "conv2d_76/BiasAdd:0"
    output: "conv2d_76/Relu:0"
    name: "conv2d_76/Relu"
    op_type: "Relu"
  }
  node {
    input: "Concat__1312:0"
    output: "Split__5339:0"
    output: "Split__5339:1"
    output: "Split__5339:2"
    output: "Split__5339:3"
    output: "Split__5339:4"
    output: "Split__5339:5"
    output: "Split__5339:6"
    output: "Split__5339:7"
    name: "Split__5339"
    op_type: "Split"
    domain: ""
  }
  node {
    input: "int32_max__3404"
    input: "Cast__1356:0"
    output: "Mul__1360:0"
    name: "Mul__1360"
    op_type: "Mul"
    domain: ""
  }
  node {
    input: "Not__1355:0"
    output: "Cast__1357:0"
    name: "Cast__1357"
    op_type: "Cast"
    attribute {
      name: "to"
      i: 7
      type: INT
    }
    domain: ""
  }
  node {
    input: "int32_max__3404"
    input: "Cast__1364:0"
    output: "Mul__1368:0"
    name: "Mul__1368"
    op_type: "Mul"
    domain: ""
  }
  node {
    input: "Not__1363:0"
    output: "Cast__1365:0"
    name: "Cast__1365"
    op_type: "Cast"
    attribute {
      name: "to"
      i: 7
      type: INT
    }
    domain: ""
  }
  node {
    input: "Cast__867:0"
    output: "Split__868:0"
    output: "Split__868:1"
    output: "Split__868:2"
    output: "Split__868:3"
    name: "Split__868"
    op_type: "Split"
    domain: ""
  }
  node {
    input: "Split__908:0"
    input: "Split__908:2"
    output: "Concat__911:0"
    name: "Concat__911"
    op_type: "Concat"
    attribute {
      name: "axis"
      i: 0
      type: INT
    }
    domain: ""
  }
  node {
    input: "Split__908:1"
    input: "zero__2713"
    output: "Equal__912:0"
    name: "Equal__912"
    op_type: "Equal"
    domain: ""
  }
  node {
    input: "Split__908:3"
    input: "zero__2713"
    output: "Equal__920:0"
    name: "Equal__920"
    op_type: "Equal"
    domain: ""
  }
  node {
    input: "Div__674:0"
    input: "Div__675:0"
    output: "Concat__678:0"
    name: "Concat__678"
    op_type: "Concat"
    attribute {
      name: "axis"
      i: 0
      type: INT
    }
    domain: ""
  }
  node {
    input: "Slice__461:0"
    input: "Slice__469:0"
    output: "Sub__474:0"
    name: "Sub__474"
    op_type: "Sub"
    domain: ""
  }
  node {
    input: "Slice__465:0"
    input: "Slice__473:0"
    output: "Sub__475:0"
    name: "Sub__475"
    op_type: "Sub"
    domain: ""
  }
  node {
    input: "activation_2/Relu:0"
    input: "conv2d_47/BiasAdd:0"
    output: "add_3/add:0"
    name: "add_3/add"
    op_type: "Add"
  }
  node {
    input: "Add__676:0"
    input: "Add__677:0"
    output: "Concat__679:0"
    name: "Concat__679"
    op_type: "Concat"
    attribute {
      name: "axis"
      i: 0
      type: INT
    }
    domain: ""
  }
  node {
    input: "conv2d_51/convolution/required_space_to_batch_paddings/sub:0"
    input: "Mul__2932:0"
    output: "conv2d_51/convolution/required_space_to_batch_paddings/mod_1:0"
    name: "conv2d_51/convolution/required_space_to_batch_paddings/mod_1"
    op_type: "Sub"
    domain: ""
  }
  node {
    input: "conv2d_60/convolution/required_space_to_batch_paddings/sub:0"
    input: "conv2d_62/convolution/dilation_rate:0"
    output: "Div__2489:0"
    name: "Div__2489"
    op_type: "Div"
    domain: ""
  }
  node {
    input: "conv2d_transpose_14/Shape:0"
    output: "conv2d_transpose_14/Shape__2302:0"
    name: "conv2d_transpose_14/Shape__2302"
    op_type: "Cast"
    attribute {
      name: "to"
      i: 6
      type: INT
    }
  }
  node {
    input: "Shape__6573:0"
    input: "Const__7261"
    output: "Shape__2321:0"
    name: "Gather__6576"
    op_type: "Gather"
    domain: ""
  }
  node {
    input: "conv2d_73/Relu:0"
    output: "Shape__6545:0"
    name: "Shape__6545"
    op_type: "Shape"
    domain: ""
  }
  node {
    input: "conv2d_73/Relu:0"
    input: "conv2d_transpose_17/kernel/read:0"
    output: "conv2d_transpose_17/conv2d_transpose:0"
    name: "conv2d_transpose_17/conv2d_transpose"
    op_type: "ConvTranspose"
    attribute {
      name: "dilations"
      ints: 1
      ints: 1
      type: INTS
    }
    attribute {
      name: "strides"
      ints: 1
      ints: 1
      type: INTS
    }
    attribute {
      name: "kernel_shape"
      ints: 5
      ints: 5
      type: INTS
    }
  }
  node {
    input: "conv2d_76/Relu:0"
    input: "conv2d_77/kernel/read:0"
    input: "conv2d_77/bias/read:0"
    output: "conv2d_77/BiasAdd:0"
    name: "conv2d_77/BiasAdd"
    op_type: "Conv"
    attribute {
      name: "dilations"
      ints: 1
      ints: 1
      type: INTS
    }
    attribute {
      name: "strides"
      ints: 1
      ints: 1
      type: INTS
    }
    attribute {
      name: "kernel_shape"
      ints: 3
      ints: 3
      type: INTS
    }
    attribute {
      name: "auto_pad"
      s: "SAME_UPPER"
      type: STRING
    }
    attribute {
      name: "group"
      i: 1
      type: INT
    }
    domain: ""
  }
  node {
    input: "Split__5339:1"
    input: "Split__5339:0"
    input: "Split__5339:2"
    input: "Split__5339:3"
    input: "Split__5339:5"
    input: "Split__5339:4"
    input: "Split__5339:6"
    input: "Split__5339:7"
    output: "Concat__5340:0"
    name: "Concat__5340"
    op_type: "Concat"
    attribute {
      name: "axis"
      i: 0
      type: INT
    }
    domain: ""
  }
  node {
    input: "Cast__1357:0"
    output: "Neg__1358:0"
    name: "Neg__1358"
    op_type: "Neg"
    domain: ""
  }
  node {
    input: "Cast__1365:0"
    output: "Neg__1366:0"
    name: "Neg__1366"
    op_type: "Neg"
    domain: ""
  }
  node {
    input: "zero__2713"
    input: "zero__2713"
    input: "Split__868:0"
    input: "Split__868:2"
    input: "zero__2713"
    input: "zero__2713"
    input: "Split__868:1"
    input: "Split__868:3"
    output: "Concat__870:0"
    name: "Concat__870"
    op_type: "Concat"
    attribute {
      name: "axis"
      i: 0
      type: INT
    }
    domain: ""
  }
  node {
    input: "Equal__912:0"
    output: "Cast__914:0"
    name: "Cast__914"
    op_type: "Cast"
    attribute {
      name: "to"
      i: 7
      type: INT
    }
    domain: ""
  }
  node {
    input: "Equal__912:0"
    output: "Not__913:0"
    name: "Not__913"
    op_type: "Not"
    domain: ""
  }
  node {
    input: "Equal__920:0"
    output: "Cast__922:0"
    name: "Cast__922"
    op_type: "Cast"
    attribute {
      name: "to"
      i: 7
      type: INT
    }
    domain: ""
  }
  node {
    input: "Equal__920:0"
    output: "Not__921:0"
    name: "Not__921"
    op_type: "Not"
    domain: ""
  }
  node {
    input: "Sub__474:0"
    input: "const_ends__2332"
    output: "Div__477:0"
    name: "Div__477"
    op_type: "Div"
    domain: ""
  }
  node {
    input: "Sub__475:0"
    input: "const_ends__2332"
    output: "Div__478:0"
    name: "Div__478"
    op_type: "Div"
    domain: ""
  }
  node {
    input: "add_3/add:0"
    output: "activation_3/Relu:0"
    name: "activation_3/Relu"
    op_type: "Relu"
  }
  node {
    input: "Div__477:0"
    input: "Slice__469:0"
    output: "Add__479:0"
    name: "Add__479"
    op_type: "Add"
    domain: ""
  }
  node {
    input: "Div__478:0"
    input: "Slice__473:0"
    output: "Add__480:0"
    name: "Add__480"
    op_type: "Add"
    domain: ""
  }
  node {
    input: "conv2d_transpose_3/conv2d_transpose:0"
    input: "Concat__678:0"
    input: "Concat__679:0"
    input: "conv2d_transpose_10/conv2d_transpose_const_slice_axes__4122"
    output: "Slice__681:0"
    name: "Slice__681"
    op_type: "Slice"
    domain: ""
  }
  node {
    input: "conv2d_62/convolution/dilation_rate:0"
    input: "conv2d_51/convolution/required_space_to_batch_paddings/mod_1:0"
    output: "conv2d_51/convolution/required_space_to_batch_paddings/add_2:0"
    name: "conv2d_51/convolution/required_space_to_batch_paddings/add_2"
    op_type: "Add"
  }
  node {
    input: "conv2d_51/convolution/required_space_to_batch_paddings/mod_1:0"
    input: "zero__2713"
    input: "const_ends__2170"
    input: "zero__2713"
    output: "conv2d_51/convolution/required_space_to_batch_paddings/strided_slice_6:0"
    name: "conv2d_51/convolution/required_space_to_batch_paddings/strided_slice_6"
    op_type: "Slice"
    domain: ""
  }
  node {
    input: "conv2d_51/convolution/required_space_to_batch_paddings/mod_1:0"
    input: "const_ends__2170"
    input: "const_ends__2332"
    input: "zero__2713"
    output: "conv2d_51/convolution/required_space_to_batch_paddings/strided_slice_7:0"
    name: "conv2d_51/convolution/required_space_to_batch_paddings/strided_slice_7"
    op_type: "Slice"
    domain: ""
  }
  node {
    input: "Div__2489:0"
    input: "conv2d_62/convolution/dilation_rate:0"
    output: "Mul__2490:0"
    name: "Mul__2490"
    op_type: "Mul"
    domain: ""
  }
  node {
    input: "conv2d_transpose_14/Shape__2302:0"
    input: "zero__2713"
    input: "const_ends__2170"
    input: "zero__2713"
    output: "conv2d_transpose_14/strided_slice:0"
    name: "conv2d_transpose_14/strided_slice"
    op_type: "Slice"
    domain: ""
  }
  node {
    input: "conv2d_transpose_14/Shape__2302:0"
    input: "const_ends__2170"
    input: "const_ends__2332"
    input: "zero__2713"
    output: "conv2d_transpose_14/strided_slice_1:0"
    name: "conv2d_transpose_14/strided_slice_1"
    op_type: "Slice"
    domain: ""
  }
  node {
    input: "conv2d_transpose_14/Shape__2302:0"
    input: "const_ends__2332"
    input: "const_ends__573"
    input: "zero__2713"
    output: "conv2d_transpose_14/strided_slice_2:0"
    name: "conv2d_transpose_14/strided_slice_2"
    op_type: "Slice"
    domain: ""
  }
  node {
    input: "Shape__2321:0"
    input: "const_ends__2170"
    input: "const_ends__2332"
    input: "zero__2713"
    output: "Slice__2326:0"
    name: "Slice__2326"
    op_type: "Slice"
    domain: ""
  }
  node {
    input: "Shape__2321:0"
    input: "const_ends__2332"
    input: "const_ends__573"
    input: "zero__2713"
    output: "Slice__2330:0"
    name: "Slice__2330"
    op_type: "Slice"
    domain: ""
  }
  node {
    input: "Shape__6545:0"
    input: "Const__7261"
    output: "conv2d_transpose_17/Shape:0"
    name: "Gather__6550"
    op_type: "Gather"
    domain: ""
  }
  node {
    input: "conv2d_transpose_17/conv2d_transpose:0"
    output: "Shape__6563:0"
    name: "Shape__6563"
    op_type: "Shape"
    domain: ""
  }
  node {
    input: "conv2d_77/BiasAdd:0"
    input: "conv2d_78/kernel/read:0"
    input: "conv2d_78/bias/read:0"
    output: "conv2d_78/BiasAdd:0"
    name: "conv2d_78/BiasAdd"
    op_type: "Conv"
    attribute {
      name: "dilations"
      ints: 1
      ints: 1
      type: INTS
    }
    attribute {
      name: "strides"
      ints: 1
      ints: 1
      type: INTS
    }
    attribute {
      name: "kernel_shape"
      ints: 3
      ints: 3
      type: INTS
    }
    attribute {
      name: "auto_pad"
      s: "SAME_UPPER"
      type: STRING
    }
    attribute {
      name: "group"
      i: 1
      type: INT
    }
    domain: ""
  }
  node {
    input: "Concat__5340:0"
    output: "Split__5341:0"
    output: "Split__5341:1"
    output: "Split__5341:2"
    output: "Split__5341:3"
    output: "Split__5341:4"
    output: "Split__5341:5"
    output: "Split__5341:6"
    output: "Split__5341:7"
    name: "Split__5341"
    op_type: "Split"
    domain: ""
  }
  node {
    input: "Split__1350:1"
    input: "Neg__1358:0"
    output: "Mul__1359:0"
    name: "Mul__1359"
    op_type: "Mul"
    domain: ""
  }
  node {
    input: "Split__1350:3"
    input: "Neg__1366:0"
    output: "Mul__1367:0"
    name: "Mul__1367"
    op_type: "Mul"
    domain: ""
  }
  node {
    input: "Concat__870:0"
    output: "Split__5327:0"
    output: "Split__5327:1"
    output: "Split__5327:2"
    output: "Split__5327:3"
    output: "Split__5327:4"
    output: "Split__5327:5"
    output: "Split__5327:6"
    output: "Split__5327:7"
    name: "Split__5327"
    op_type: "Split"
    domain: ""
  }
  node {
    input: "int32_max__3404"
    input: "Cast__914:0"
    output: "Mul__918:0"
    name: "Mul__918"
    op_type: "Mul"
    domain: ""
  }
  node {
    input: "Not__913:0"
    output: "Cast__915:0"
    name: "Cast__915"
    op_type: "Cast"
    attribute {
      name: "to"
      i: 7
      type: INT
    }
    domain: ""
  }
  node {
    input: "int32_max__3404"
    input: "Cast__922:0"
    output: "Mul__926:0"
    name: "Mul__926"
    op_type: "Mul"
    domain: ""
  }
  node {
    input: "Not__921:0"
    output: "Cast__923:0"
    name: "Cast__923"
    op_type: "Cast"
    attribute {
      name: "to"
      i: 7
      type: INT
    }
    domain: ""
  }
  node {
    input: "Div__477:0"
    input: "Div__478:0"
    output: "Concat__481:0"
    name: "Concat__481"
    op_type: "Concat"
    attribute {
      name: "axis"
      i: 0
      type: INT
    }
    domain: ""
  }
  node {
    input: "activation_3/Relu:0"
    input: "conv2d_48/kernel/read:0"
    input: "conv2d_48/bias/read:0"
    output: "conv2d_48/BiasAdd:0"
    name: "conv2d_48/BiasAdd"
    op_type: "Conv"
    attribute {
      name: "dilations"
      ints: 1
      ints: 1
      type: INTS
    }
    attribute {
      name: "strides"
      ints: 1
      ints: 1
      type: INTS
    }
    attribute {
      name: "kernel_shape"
      ints: 3
      ints: 3
      type: INTS
    }
    attribute {
      name: "auto_pad"
      s: "SAME_UPPER"
      type: STRING
    }
    attribute {
      name: "group"
      i: 1
      type: INT
    }
    domain: ""
  }
  node {
    input: "Mul__1359:0"
    input: "Mul__1360:0"
    output: "Add__1361:0"
    name: "Add__1361"
    op_type: "Add"
    domain: ""
  }
  node {
    input: "Mul__1367:0"
    input: "Mul__1368:0"
    output: "Add__1369:0"
    name: "Add__1369"
    op_type: "Add"
    domain: ""
  }
  node {
    input: "Add__479:0"
    input: "Add__480:0"
    output: "Concat__482:0"
    name: "Concat__482"
    op_type: "Concat"
    attribute {
      name: "axis"
      i: 0
      type: INT
    }
    domain: ""
  }
  node {
    input: "Slice__681:0"
    input: "const_fold_opt__7663"
    output: "conv2d_transpose_3/BiasAdd:0"
    name: "conv2d_transpose_3/BiasAdd"
    op_type: "Add"
  }
  node {
    input: "conv2d_51/convolution/required_space_to_batch_paddings/add_2:0"
    input: "zero__2713"
    input: "const_ends__2170"
    input: "zero__2713"
    output: "conv2d_51/convolution/required_space_to_batch_paddings/strided_slice_3:0"
    name: "conv2d_51/convolution/required_space_to_batch_paddings/strided_slice_3"
    op_type: "Slice"
    domain: ""
  }
  node {
    input: "conv2d_51/convolution/required_space_to_batch_paddings/add_2:0"
    input: "const_ends__2170"
    input: "const_ends__2332"
    input: "zero__2713"
    output: "conv2d_51/convolution/required_space_to_batch_paddings/strided_slice_5:0"
    name: "conv2d_51/convolution/required_space_to_batch_paddings/strided_slice_5"
    op_type: "Slice"
    domain: ""
  }
  node {
    input: "const_fold_opt__7567"
    input: "conv2d_51/convolution/required_space_to_batch_paddings/strided_slice_6:0"
    output: "conv2d_51/convolution/required_space_to_batch_paddings/crops/0_Concat__2946:0"
    name: "conv2d_51/convolution/required_space_to_batch_paddings/crops/0_Concat__2946"
    op_type: "Concat"
    attribute {
      name: "axis"
      i: 0
      type: INT
    }
    domain: ""
  }
  node {
    input: "const_fold_opt__7567"
    input: "conv2d_51/convolution/required_space_to_batch_paddings/strided_slice_7:0"
    output: "conv2d_51/convolution/required_space_to_batch_paddings/crops/1_Concat__2939:0"
    name: "conv2d_51/convolution/required_space_to_batch_paddings/crops/1_Concat__2939"
    op_type: "Concat"
    attribute {
      name: "axis"
      i: 0
      type: INT
    }
    domain: ""
  }
  node {
    input: "conv2d_60/convolution/required_space_to_batch_paddings/sub:0"
    input: "Mul__2490:0"
    output: "conv2d_60/convolution/required_space_to_batch_paddings/mod_1:0"
    name: "conv2d_60/convolution/required_space_to_batch_paddings/mod_1"
    op_type: "Sub"
    domain: ""
  }
  node {
    input: "conv2d_transpose_14/strided_slice_1:0"
    output: "conv2d_transpose_14/strided_slice_1__2310:0"
    name: "conv2d_transpose_14/strided_slice_1__2310"
    op_type: "Squeeze"
    attribute {
      name: "axes"
      ints: 0
      type: INTS
    }
    domain: ""
  }
  node {
    input: "conv2d_transpose_14/strided_slice_2:0"
    output: "conv2d_transpose_14/strided_slice_2__2306:0"
    name: "conv2d_transpose_14/strided_slice_2__2306"
    op_type: "Squeeze"
    attribute {
      name: "axes"
      ints: 0
      type: INTS
    }
    domain: ""
  }
  node {
    input: "conv2d_transpose_17/Shape:0"
    output: "conv2d_transpose_17/Shape__2105:0"
    name: "conv2d_transpose_17/Shape__2105"
    op_type: "Cast"
    attribute {
      name: "to"
      i: 6
      type: INT
    }
  }
  node {
    input: "Shape__6563:0"
    input: "Const__7261"
    output: "Shape__2124:0"
    name: "Gather__6566"
    op_type: "Gather"
    domain: ""
  }
  node {
    input: "conv2d_76/Relu:0"
    input: "conv2d_78/BiasAdd:0"
    output: "add_5/add:0"
    name: "add_5/add"
    op_type: "Add"
  }
  node {
    input: "Split__5341:0"
    input: "Split__5341:2"
    input: "Split__5341:3"
    input: "Split__5341:1"
    input: "Split__5341:4"
    input: "Split__5341:6"
    input: "Split__5341:7"
    input: "Split__5341:5"
    output: "Concat__5342:0"
    name: "Concat__5342"
    op_type: "Concat"
    attribute {
      name: "axis"
      i: 0
      type: INT
    }
    domain: ""
  }
  node {
    input: "Split__5327:1"
    input: "Split__5327:0"
    input: "Split__5327:2"
    input: "Split__5327:3"
    input: "Split__5327:5"
    input: "Split__5327:4"
    input: "Split__5327:6"
    input: "Split__5327:7"
    output: "Concat__5328:0"
    name: "Concat__5328"
    op_type: "Concat"
    attribute {
      name: "axis"
      i: 0
      type: INT
    }
    domain: ""
  }
  node {
    input: "Cast__915:0"
    output: "Neg__916:0"
    name: "Neg__916"
    op_type: "Neg"
    domain: ""
  }
  node {
    input: "Cast__923:0"
    output: "Neg__924:0"
    name: "Neg__924"
    op_type: "Neg"
    domain: ""
  }
  node {
    input: "conv2d_48/BiasAdd:0"
    input: "conv2d_49/kernel/read:0"
    input: "conv2d_49/bias/read:0"
    output: "conv2d_49/BiasAdd:0"
    name: "conv2d_49/BiasAdd"
    op_type: "Conv"
    attribute {
      name: "dilations"
      ints: 1
      ints: 1
      type: INTS
    }
    attribute {
      name: "strides"
      ints: 1
      ints: 1
      type: INTS
    }
    attribute {
      name: "kernel_shape"
      ints: 3
      ints: 3
      type: INTS
    }
    attribute {
      name: "auto_pad"
      s: "SAME_UPPER"
      type: STRING
    }
    attribute {
      name: "group"
      i: 1
      type: INT
    }
    domain: ""
  }
  node {
    input: "Add__1361:0"
    input: "Add__1369:0"
    output: "Concat__1370:0"
    name: "Concat__1370"
    op_type: "Concat"
    attribute {
      name: "axis"
      i: 0
      type: INT
    }
    domain: ""
  }
  node {
    input: "conv2d_transpose_6/conv2d_transpose:0"
    input: "Concat__481:0"
    input: "Concat__482:0"
    input: "conv2d_transpose_10/conv2d_transpose_const_slice_axes__4122"
    output: "Slice__484:0"
    name: "Slice__484"
    op_type: "Slice"
    domain: ""
  }
  node {
    input: "conv2d_transpose_3/BiasAdd:0"
    output: "conv2d_transpose_3/Relu:0"
    name: "conv2d_transpose_3/Relu"
    op_type: "Relu"
  }
  node {
    input: "const_fold_opt__7564"
    input: "conv2d_51/convolution/required_space_to_batch_paddings/strided_slice_3:0"
    output: "conv2d_51/convolution/required_space_to_batch_paddings/paddings/0_Concat__2963:0"
    name: "conv2d_51/convolution/required_space_to_batch_paddings/paddings/0_Concat__2963"
    op_type: "Concat"
    attribute {
      name: "axis"
      i: 0
      type: INT
    }
    domain: ""
  }
  node {
    input: "const_fold_opt__7564"
    input: "conv2d_51/convolution/required_space_to_batch_paddings/strided_slice_5:0"
    output: "conv2d_51/convolution/required_space_to_batch_paddings/paddings/1_Concat__2956:0"
    name: "conv2d_51/convolution/required_space_to_batch_paddings/paddings/1_Concat__2956"
    op_type: "Concat"
    attribute {
      name: "axis"
      i: 0
      type: INT
    }
    domain: ""
  }
  node {
    input: "conv2d_51/convolution/required_space_to_batch_paddings/crops/0_Concat__2946:0"
    output: "conv2d_51/convolution/required_space_to_batch_paddings/crops_Unsqueeze__2947:0"
    name: "conv2d_51/convolution/required_space_to_batch_paddings/crops_Unsqueeze__2947"
    op_type: "Unsqueeze"
    attribute {
      name: "axes"
      ints: 0
      type: INTS
    }
    domain: ""
  }
  node {
    input: "conv2d_51/convolution/required_space_to_batch_paddings/crops/1_Concat__2939:0"
    output: "conv2d_51/convolution/required_space_to_batch_paddings/crops_Unsqueeze__2948:0"
    name: "conv2d_51/convolution/required_space_to_batch_paddings/crops_Unsqueeze__2948"
    op_type: "Unsqueeze"
    attribute {
      name: "axes"
      ints: 0
      type: INTS
    }
    domain: ""
  }
  node {
    input: "conv2d_52/convolution/required_space_to_batch_paddings/strided_slice_1:0"
    input: "conv2d_60/convolution/required_space_to_batch_paddings/mod_1:0"
    output: "conv2d_60/convolution/required_space_to_batch_paddings/add_2:0"
    name: "conv2d_60/convolution/required_space_to_batch_paddings/add_2"
    op_type: "Add"
  }
  node {
    input: "conv2d_60/convolution/required_space_to_batch_paddings/mod_1:0"
    input: "zero__2713"
    input: "const_ends__2170"
    input: "zero__2713"
    output: "conv2d_60/convolution/required_space_to_batch_paddings/strided_slice_6:0"
    name: "conv2d_60/convolution/required_space_to_batch_paddings/strided_slice_6"
    op_type: "Slice"
    domain: ""
  }
  node {
    input: "conv2d_60/convolution/required_space_to_batch_paddings/mod_1:0"
    input: "const_ends__2170"
    input: "const_ends__2332"
    input: "zero__2713"
    output: "conv2d_60/convolution/required_space_to_batch_paddings/strided_slice_7:0"
    name: "conv2d_60/convolution/required_space_to_batch_paddings/strided_slice_7"
    op_type: "Slice"
    domain: ""
  }
  node {
    input: "conv2d_transpose_14/strided_slice_1__2310:0"
    input: "conv2d_transpose_4/add/y:0"
    output: "conv2d_transpose_14/add:0"
    name: "conv2d_transpose_14/add"
    op_type: "Add"
  }
  node {
    input: "conv2d_transpose_14/strided_slice_2__2306:0"
    input: "conv2d_transpose_4/add/y:0"
    output: "conv2d_transpose_14/add_1:0"
    name: "conv2d_transpose_14/add_1"
    op_type: "Add"
  }
  node {
    input: "conv2d_transpose_17/Shape__2105:0"
    input: "zero__2713"
    input: "const_ends__2170"
    input: "zero__2713"
    output: "conv2d_transpose_17/strided_slice:0"
    name: "conv2d_transpose_17/strided_slice"
    op_type: "Slice"
    domain: ""
  }
  node {
    input: "conv2d_transpose_17/Shape__2105:0"
    input: "const_ends__2170"
    input: "const_ends__2332"
    input: "zero__2713"
    output: "conv2d_transpose_17/strided_slice_1:0"
    name: "conv2d_transpose_17/strided_slice_1"
    op_type: "Slice"
    domain: ""
  }
  node {
    input: "conv2d_transpose_17/Shape__2105:0"
    input: "const_ends__2332"
    input: "const_ends__573"
    input: "zero__2713"
    output: "conv2d_transpose_17/strided_slice_2:0"
    name: "conv2d_transpose_17/strided_slice_2"
    op_type: "Slice"
    domain: ""
  }
  node {
    input: "Shape__2124:0"
    input: "const_ends__2170"
    input: "const_ends__2332"
    input: "zero__2713"
    output: "Slice__2129:0"
    name: "Slice__2129"
    op_type: "Slice"
    domain: ""
  }
  node {
    input: "Shape__2124:0"
    input: "const_ends__2332"
    input: "const_ends__573"
    input: "zero__2713"
    output: "Slice__2133:0"
    name: "Slice__2133"
    op_type: "Slice"
    domain: ""
  }
  node {
    input: "add_5/add:0"
    output: "activation_5/Relu:0"
    name: "activation_5/Relu"
    op_type: "Relu"
  }
  node {
    input: "Concat__5342:0"
    output: "Split__6453:0"
    output: "Split__6453:1"
    output: "Split__6453:2"
    output: "Split__6453:3"
    output: "Split__6453:4"
    output: "Split__6453:5"
    output: "Split__6453:6"
    output: "Split__6453:7"
    name: "Split__6453"
    op_type: "Split"
    domain: ""
  }
  node {
    input: "Concat__5328:0"
    output: "Split__5329:0"
    output: "Split__5329:1"
    output: "Split__5329:2"
    output: "Split__5329:3"
    output: "Split__5329:4"
    output: "Split__5329:5"
    output: "Split__5329:6"
    output: "Split__5329:7"
    name: "Split__5329"
    op_type: "Split"
    domain: ""
  }
  node {
    input: "Split__908:1"
    input: "Neg__916:0"
    output: "Mul__917:0"
    name: "Mul__917"
    op_type: "Mul"
    domain: ""
  }
  node {
    input: "Split__908:3"
    input: "Neg__924:0"
    output: "Mul__925:0"
    name: "Mul__925"
    op_type: "Mul"
    domain: ""
  }
  node {
    input: "activation_3/Relu:0"
    input: "conv2d_49/BiasAdd:0"
    output: "add_4/add:0"
    name: "add_4/add"
    op_type: "Add"
  }
  node {
    input: "Slice__484:0"
    input: "const_fold_opt__7690"
    output: "conv2d_transpose_6/BiasAdd:0"
    name: "conv2d_transpose_6/BiasAdd"
    op_type: "Add"
  }
  node {
    input: "conv2d_transpose_3/Relu:0"
    output: "Shape__7359:0"
    name: "Shape__7359"
    op_type: "Shape"
    domain: ""
  }
  node {
    input: "conv2d_transpose_3/Relu:0"
    input: "conv2d_transpose_4/kernel/read:0"
    output: "conv2d_transpose_4/conv2d_transpose:0"
    name: "conv2d_transpose_4/conv2d_transpose"
    op_type: "ConvTranspose"
    attribute {
      name: "dilations"
      ints: 1
      ints: 1
      type: INTS
    }
    attribute {
      name: "strides"
      ints: 1
      ints: 1
      type: INTS
    }
    attribute {
      name: "kernel_shape"
      ints: 7
      ints: 7
      type: INTS
    }
  }
  node {
    input: "Mul__917:0"
    input: "Mul__918:0"
    output: "Add__919:0"
    name: "Add__919"
    op_type: "Add"
    domain: ""
  }
  node {
    input: "Mul__925:0"
    input: "Mul__926:0"
    output: "Add__927:0"
    name: "Add__927"
    op_type: "Add"
    domain: ""
  }
  node {
    input: "conv2d_51/convolution/required_space_to_batch_paddings/paddings/0_Concat__2963:0"
    output: "conv2d_51/convolution/required_space_to_batch_paddings/paddings_Unsqueeze__2964:0"
    name: "conv2d_51/convolution/required_space_to_batch_paddings/paddings_Unsqueeze__2964"
    op_type: "Unsqueeze"
    attribute {
      name: "axes"
      ints: 0
      type: INTS
    }
    domain: ""
  }
  node {
    input: "conv2d_51/convolution/required_space_to_batch_paddings/paddings/1_Concat__2956:0"
    output: "conv2d_51/convolution/required_space_to_batch_paddings/paddings_Unsqueeze__2965:0"
    name: "conv2d_51/convolution/required_space_to_batch_paddings/paddings_Unsqueeze__2965"
    op_type: "Unsqueeze"
    attribute {
      name: "axes"
      ints: 0
      type: INTS
    }
    domain: ""
  }
  node {
    input: "conv2d_51/convolution/required_space_to_batch_paddings/crops_Unsqueeze__2947:0"
    input: "conv2d_51/convolution/required_space_to_batch_paddings/crops_Unsqueeze__2948:0"
    output: "conv2d_51/convolution/required_space_to_batch_paddings/crops_Concat__2949:0"
    name: "conv2d_51/convolution/required_space_to_batch_paddings/crops_Concat__2949"
    op_type: "Concat"
    attribute {
      name: "axis"
      i: 0
      type: INT
    }
    domain: ""
  }
  node {
    input: "conv2d_60/convolution/required_space_to_batch_paddings/add_2:0"
    input: "zero__2713"
    input: "const_ends__2170"
    input: "zero__2713"
    output: "conv2d_60/convolution/required_space_to_batch_paddings/strided_slice_3:0"
    name: "conv2d_60/convolution/required_space_to_batch_paddings/strided_slice_3"
    op_type: "Slice"
    domain: ""
  }
  node {
    input: "conv2d_60/convolution/required_space_to_batch_paddings/add_2:0"
    input: "const_ends__2170"
    input: "const_ends__2332"
    input: "zero__2713"
    output: "conv2d_60/convolution/required_space_to_batch_paddings/strided_slice_5:0"
    name: "conv2d_60/convolution/required_space_to_batch_paddings/strided_slice_5"
    op_type: "Slice"
    domain: ""
  }
  node {
    input: "const_fold_opt__7567"
    input: "conv2d_60/convolution/required_space_to_batch_paddings/strided_slice_6:0"
    output: "conv2d_60/convolution/required_space_to_batch_paddings/crops/0_Concat__2504:0"
    name: "conv2d_60/convolution/required_space_to_batch_paddings/crops/0_Concat__2504"
    op_type: "Concat"
    attribute {
      name: "axis"
      i: 0
      type: INT
    }
    domain: ""
  }
  node {
    input: "const_fold_opt__7567"
    input: "conv2d_60/convolution/required_space_to_batch_paddings/strided_slice_7:0"
    output: "conv2d_60/convolution/required_space_to_batch_paddings/crops/1_Concat__2497:0"
    name: "conv2d_60/convolution/required_space_to_batch_paddings/crops/1_Concat__2497"
    op_type: "Concat"
    attribute {
      name: "axis"
      i: 0
      type: INT
    }
    domain: ""
  }
  node {
    input: "conv2d_transpose_14/add:0"
    output: "conv2d_transpose_14/stack_Unsqueeze__2316:0"
    name: "conv2d_transpose_14/stack_Unsqueeze__2316"
    op_type: "Unsqueeze"
    attribute {
      name: "axes"
      ints: 0
      type: INTS
    }
    domain: ""
  }
  node {
    input: "conv2d_transpose_14/add_1:0"
    output: "conv2d_transpose_14/stack_Unsqueeze__2317:0"
    name: "conv2d_transpose_14/stack_Unsqueeze__2317"
    op_type: "Unsqueeze"
    attribute {
      name: "axes"
      ints: 0
      type: INTS
    }
    domain: ""
  }
  node {
    input: "conv2d_transpose_17/strided_slice_1:0"
    output: "conv2d_transpose_17/strided_slice_1__2113:0"
    name: "conv2d_transpose_17/strided_slice_1__2113"
    op_type: "Squeeze"
    attribute {
      name: "axes"
      ints: 0
      type: INTS
    }
    domain: ""
  }
  node {
    input: "conv2d_transpose_17/strided_slice_2:0"
    output: "conv2d_transpose_17/strided_slice_2__2109:0"
    name: "conv2d_transpose_17/strided_slice_2__2109"
    op_type: "Squeeze"
    attribute {
      name: "axes"
      ints: 0
      type: INTS
    }
    domain: ""
  }
  node {
    input: "activation_5/Relu:0"
    input: "conv2d_79/kernel/read:0"
    input: "conv2d_79/bias/read:0"
    output: "conv2d_79/BiasAdd:0"
    name: "conv2d_79/BiasAdd"
    op_type: "Conv"
    attribute {
      name: "dilations"
      ints: 1
      ints: 1
      type: INTS
    }
    attribute {
      name: "strides"
      ints: 1
      ints: 1
      type: INTS
    }
    attribute {
      name: "kernel_shape"
      ints: 3
      ints: 3
      type: INTS
    }
    attribute {
      name: "auto_pad"
      s: "SAME_UPPER"
      type: STRING
    }
    attribute {
      name: "group"
      i: 1
      type: INT
    }
    domain: ""
  }
  node {
    input: "Split__6453:0"
    input: "Split__6453:3"
    input: "Split__6453:1"
    input: "Split__6453:2"
    input: "Split__6453:4"
    input: "Split__6453:7"
    input: "Split__6453:5"
    input: "Split__6453:6"
    output: "Concat__6454:0"
    name: "Concat__6454"
    op_type: "Concat"
    attribute {
      name: "axis"
      i: 0
      type: INT
    }
    domain: ""
  }
  node {
    input: "Split__5329:0"
    input: "Split__5329:2"
    input: "Split__5329:3"
    input: "Split__5329:1"
    input: "Split__5329:4"
    input: "Split__5329:6"
    input: "Split__5329:7"
    input: "Split__5329:5"
    output: "Concat__5330:0"
    name: "Concat__5330"
    op_type: "Concat"
    attribute {
      name: "axis"
      i: 0
      type: INT
    }
    domain: ""
  }
  node {
    input: "add_4/add:0"
    output: "activation_4/Relu:0"
    name: "activation_4/Relu"
    op_type: "Relu"
  }
  node {
    input: "conv2d_transpose_6/BiasAdd:0"
    output: "conv2d_transpose_6/Relu:0"
    name: "conv2d_transpose_6/Relu"
    op_type: "Relu"
  }
  node {
    input: "Shape__7359:0"
    input: "Const__7261"
    output: "conv2d_transpose_4/Shape:0"
    name: "Gather__7364"
    op_type: "Gather"
    domain: ""
  }
  node {
    input: "conv2d_transpose_4/conv2d_transpose:0"
    output: "Shape__6621:0"
    name: "Shape__6621"
    op_type: "Shape"
    domain: ""
  }
  node {
    input: "Add__919:0"
    input: "Add__927:0"
    output: "Concat__928:0"
    name: "Concat__928"
    op_type: "Concat"
    attribute {
      name: "axis"
      i: 0
      type: INT
    }
    domain: ""
  }
  node {
    input: "conv2d_51/convolution/required_space_to_batch_paddings/paddings_Unsqueeze__2964:0"
    input: "conv2d_51/convolution/required_space_to_batch_paddings/paddings_Unsqueeze__2965:0"
    output: "conv2d_51/convolution/required_space_to_batch_paddings/paddings_Concat__2966:0"
    name: "conv2d_51/convolution/required_space_to_batch_paddings/paddings_Concat__2966"
    op_type: "Concat"
    attribute {
      name: "axis"
      i: 0
      type: INT
    }
    domain: ""
  }
  node {
    input: "conv2d_51/convolution/required_space_to_batch_paddings/crops_Concat__2949:0"
    input: "shape__1563"
    output: "Reshape__3016:0"
    name: "Reshape__3016"
    op_type: "Reshape"
    domain: ""
  }
  node {
    input: "const_fold_opt__7592"
    input: "conv2d_60/convolution/required_space_to_batch_paddings/strided_slice_3:0"
    output: "conv2d_60/convolution/required_space_to_batch_paddings/paddings/0_Concat__2521:0"
    name: "conv2d_60/convolution/required_space_to_batch_paddings/paddings/0_Concat__2521"
    op_type: "Concat"
    attribute {
      name: "axis"
      i: 0
      type: INT
    }
    domain: ""
  }
  node {
    input: "const_fold_opt__7592"
    input: "conv2d_60/convolution/required_space_to_batch_paddings/strided_slice_5:0"
    output: "conv2d_60/convolution/required_space_to_batch_paddings/paddings/1_Concat__2514:0"
    name: "conv2d_60/convolution/required_space_to_batch_paddings/paddings/1_Concat__2514"
    op_type: "Concat"
    attribute {
      name: "axis"
      i: 0
      type: INT
    }
    domain: ""
  }
  node {
    input: "conv2d_60/convolution/required_space_to_batch_paddings/crops/0_Concat__2504:0"
    output: "conv2d_60/convolution/required_space_to_batch_paddings/crops_Unsqueeze__2505:0"
    name: "conv2d_60/convolution/required_space_to_batch_paddings/crops_Unsqueeze__2505"
    op_type: "Unsqueeze"
    attribute {
      name: "axes"
      ints: 0
      type: INTS
    }
    domain: ""
  }
  node {
    input: "conv2d_60/convolution/required_space_to_batch_paddings/crops/1_Concat__2497:0"
    output: "conv2d_60/convolution/required_space_to_batch_paddings/crops_Unsqueeze__2506:0"
    name: "conv2d_60/convolution/required_space_to_batch_paddings/crops_Unsqueeze__2506"
    op_type: "Unsqueeze"
    attribute {
      name: "axes"
      ints: 0
      type: INTS
    }
    domain: ""
  }
  node {
    input: "conv2d_transpose_14/strided_slice:0"
    input: "conv2d_transpose_14/stack_Unsqueeze__2316:0"
    input: "conv2d_transpose_14/stack_Unsqueeze__2317:0"
    input: "const_fold_opt__7487"
    output: "conv2d_transpose_14/stack_Concat__2319:0"
    name: "conv2d_transpose_14/stack_Concat__2319"
    op_type: "Concat"
    attribute {
      name: "axis"
      i: 0
      type: INT
    }
    domain: ""
  }
  node {
    input: "conv2d_transpose_17/strided_slice_1__2113:0"
    input: "conv2d_transpose_7/add/y:0"
    output: "conv2d_transpose_17/add:0"
    name: "conv2d_transpose_17/add"
    op_type: "Add"
  }
  node {
    input: "conv2d_transpose_17/strided_slice_2__2109:0"
    input: "conv2d_transpose_7/add/y:0"
    output: "conv2d_transpose_17/add_1:0"
    name: "conv2d_transpose_17/add_1"
    op_type: "Add"
  }
  node {
    input: "conv2d_79/BiasAdd:0"
    input: "conv2d_80/kernel/read:0"
    input: "conv2d_80/bias/read:0"
    output: "conv2d_80/BiasAdd:0"
    name: "conv2d_80/BiasAdd"
    op_type: "Conv"
    attribute {
      name: "dilations"
      ints: 1
      ints: 1
      type: INTS
    }
    attribute {
      name: "strides"
      ints: 1
      ints: 1
      type: INTS
    }
    attribute {
      name: "kernel_shape"
      ints: 3
      ints: 3
      type: INTS
    }
    attribute {
      name: "auto_pad"
      s: "SAME_UPPER"
      type: STRING
    }
    attribute {
      name: "group"
      i: 1
      type: INT
    }
    domain: ""
  }
  node {
    input: "conv2d_15/Relu:0"
    input: "Concat__6454:0"
    output: "Pad__1313:0"
    name: "Pad__1313"
    op_type: "Pad"
    domain: ""
  }
  node {
    input: "Concat__5330:0"
    output: "Split__6451:0"
    output: "Split__6451:1"
    output: "Split__6451:2"
    output: "Split__6451:3"
    output: "Split__6451:4"
    output: "Split__6451:5"
    output: "Split__6451:6"
    output: "Split__6451:7"
    name: "Split__6451"
    op_type: "Split"
    domain: ""
  }
  node {
    input: "activation_4/Relu:0"
    output: "Shape__7085:0"
    name: "Shape__7085"
    op_type: "Shape"
    domain: ""
  }
  node {
    input: "activation_4/Relu:0"
    input: "conv2d_transpose_9/kernel/read:0"
    output: "conv2d_transpose_9/conv2d_transpose:0"
    name: "conv2d_transpose_9/conv2d_transpose"
    op_type: "ConvTranspose"
    attribute {
      name: "dilations"
      ints: 1
      ints: 1
      type: INTS
    }
    attribute {
      name: "strides"
      ints: 2
      ints: 2
      type: INTS
    }
    attribute {
      name: "kernel_shape"
      ints: 3
      ints: 3
      type: INTS
    }
  }
  node {
    input: "conv2d_transpose_6/Relu:0"
    input: "conv2d_37/Relu:0"
    output: "concatenate_10/concat:0"
    name: "concatenate_10/concat"
    op_type: "Concat"
    attribute {
      name: "axis"
      i: 1
      type: INT
    }
  }
  node {
    input: "conv2d_transpose_4/Shape:0"
    output: "conv2d_transpose_4/Shape__689:0"
    name: "conv2d_transpose_4/Shape__689"
    op_type: "Cast"
    attribute {
      name: "to"
      i: 6
      type: INT
    }
  }
  node {
    input: "Shape__6621:0"
    input: "Const__7261"
    output: "Shape__708:0"
    name: "Gather__6624"
    op_type: "Gather"
    domain: ""
  }
  node {
    input: "conv2d_51/convolution/required_space_to_batch_paddings/paddings_Concat__2966:0"
    input: "shape__1563"
    output: "Reshape__2976:0"
    name: "Reshape__2976"
    op_type: "Reshape"
    domain: ""
  }
  node {
    input: "Reshape__3016:0"
    output: "Cast__3017:0"
    name: "Cast__3017"
    op_type: "Cast"
    attribute {
      name: "to"
      i: 7
      type: INT
    }
    domain: ""
  }
  node {
    input: "conv2d_60/convolution/required_space_to_batch_paddings/paddings/0_Concat__2521:0"
    output: "conv2d_60/convolution/required_space_to_batch_paddings/paddings_Unsqueeze__2522:0"
    name: "conv2d_60/convolution/required_space_to_batch_paddings/paddings_Unsqueeze__2522"
    op_type: "Unsqueeze"
    attribute {
      name: "axes"
      ints: 0
      type: INTS
    }
    domain: ""
  }
  node {
    input: "conv2d_60/convolution/required_space_to_batch_paddings/paddings/1_Concat__2514:0"
    output: "conv2d_60/convolution/required_space_to_batch_paddings/paddings_Unsqueeze__2523:0"
    name: "conv2d_60/convolution/required_space_to_batch_paddings/paddings_Unsqueeze__2523"
    op_type: "Unsqueeze"
    attribute {
      name: "axes"
      ints: 0
      type: INTS
    }
    domain: ""
  }
  node {
    input: "conv2d_60/convolution/required_space_to_batch_paddings/crops_Unsqueeze__2505:0"
    input: "conv2d_60/convolution/required_space_to_batch_paddings/crops_Unsqueeze__2506:0"
    output: "conv2d_60/convolution/required_space_to_batch_paddings/crops_Concat__2507:0"
    name: "conv2d_60/convolution/required_space_to_batch_paddings/crops_Concat__2507"
    op_type: "Concat"
    attribute {
      name: "axis"
      i: 0
      type: INT
    }
    domain: ""
  }
  node {
    input: "conv2d_transpose_14/stack_Concat__2319:0"
    output: "Cast__2320:0"
    name: "Cast__2320"
    op_type: "Cast"
    attribute {
      name: "to"
      i: 7
      type: INT
    }
    domain: ""
  }
  node {
    input: "conv2d_transpose_17/add:0"
    output: "conv2d_transpose_17/stack_Unsqueeze__2119:0"
    name: "conv2d_transpose_17/stack_Unsqueeze__2119"
    op_type: "Unsqueeze"
    attribute {
      name: "axes"
      ints: 0
      type: INTS
    }
    domain: ""
  }
  node {
    input: "conv2d_transpose_17/add_1:0"
    output: "conv2d_transpose_17/stack_Unsqueeze__2120:0"
    name: "conv2d_transpose_17/stack_Unsqueeze__2120"
    op_type: "Unsqueeze"
    attribute {
      name: "axes"
      ints: 0
      type: INTS
    }
    domain: ""
  }
  node {
    input: "activation_5/Relu:0"
    input: "conv2d_80/BiasAdd:0"
    output: "add_6/add:0"
    name: "add_6/add"
    op_type: "Add"
  }
  node {
    input: "Pad__1313:0"
    output: "Transpose__1303:0"
    name: "Transpose__1303"
    op_type: "Transpose"
    attribute {
      name: "perm"
      ints: 1
      ints: 0
      ints: 2
      ints: 3
      type: INTS
    }
    domain: ""
  }
  node {
    input: "Split__6451:0"
    input: "Split__6451:3"
    input: "Split__6451:1"
    input: "Split__6451:2"
    input: "Split__6451:4"
    input: "Split__6451:7"
    input: "Split__6451:5"
    input: "Split__6451:6"
    output: "Concat__6452:0"
    name: "Concat__6452"
    op_type: "Concat"
    attribute {
      name: "axis"
      i: 0
      type: INT
    }
    domain: ""
  }
  node {
    input: "Shape__7085:0"
    input: "Const__7261"
    output: "conv2d_transpose_9/Shape:0"
    name: "Gather__7090"
    op_type: "Gather"
    domain: ""
  }
  node {
    input: "conv2d_transpose_9/conv2d_transpose:0"
    output: "Shape__6349:0"
    name: "Shape__6349"
    op_type: "Shape"
    domain: ""
  }
  node {
    input: "concatenate_10/concat:0"
    output: "Shape__7105:0"
    name: "Shape__7105"
    op_type: "Shape"
    domain: ""
  }
  node {
    input: "concatenate_10/concat:0"
    input: "conv2d_transpose_7/kernel/read:0"
    output: "conv2d_transpose_7/conv2d_transpose:0"
    name: "conv2d_transpose_7/conv2d_transpose"
    op_type: "ConvTranspose"
    attribute {
      name: "dilations"
      ints: 1
      ints: 1
      type: INTS
    }
    attribute {
      name: "strides"
      ints: 1
      ints: 1
      type: INTS
    }
    attribute {
      name: "kernel_shape"
      ints: 5
      ints: 5
      type: INTS
    }
  }
  node {
    input: "conv2d_transpose_4/Shape__689:0"
    input: "zero__2713"
    input: "const_ends__2170"
    input: "zero__2713"
    output: "conv2d_transpose_4/strided_slice:0"
    name: "conv2d_transpose_4/strided_slice"
    op_type: "Slice"
    domain: ""
  }
  node {
    input: "conv2d_transpose_4/Shape__689:0"
    input: "const_ends__2170"
    input: "const_ends__2332"
    input: "zero__2713"
    output: "conv2d_transpose_4/strided_slice_1:0"
    name: "conv2d_transpose_4/strided_slice_1"
    op_type: "Slice"
    domain: ""
  }
  node {
    input: "conv2d_transpose_4/Shape__689:0"
    input: "const_ends__2332"
    input: "const_ends__573"
    input: "zero__2713"
    output: "conv2d_transpose_4/strided_slice_2:0"
    name: "conv2d_transpose_4/strided_slice_2"
    op_type: "Slice"
    domain: ""
  }
  node {
    input: "Shape__708:0"
    input: "const_ends__2170"
    input: "const_ends__2332"
    input: "zero__2713"
    output: "Slice__713:0"
    name: "Slice__713"
    op_type: "Slice"
    domain: ""
  }
  node {
    input: "Shape__708:0"
    input: "const_ends__2332"
    input: "const_ends__573"
    input: "zero__2713"
    output: "Slice__717:0"
    name: "Slice__717"
    op_type: "Slice"
    domain: ""
  }
  node {
    input: "Reshape__2976:0"
    output: "Cast__2977:0"
    name: "Cast__2977"
    op_type: "Cast"
    attribute {
      name: "to"
      i: 7
      type: INT
    }
    domain: ""
  }
  node {
    input: "Cast__3017:0"
    output: "Split__3018:0"
    output: "Split__3018:1"
    output: "Split__3018:2"
    output: "Split__3018:3"
    name: "Split__3018"
    op_type: "Split"
    domain: ""
  }
  node {
    input: "conv2d_60/convolution/required_space_to_batch_paddings/paddings_Unsqueeze__2522:0"
    input: "conv2d_60/convolution/required_space_to_batch_paddings/paddings_Unsqueeze__2523:0"
    output: "conv2d_60/convolution/required_space_to_batch_paddings/paddings_Concat__2524:0"
    name: "conv2d_60/convolution/required_space_to_batch_paddings/paddings_Concat__2524"
    op_type: "Concat"
    attribute {
      name: "axis"
      i: 0
      type: INT
    }
    domain: ""
  }
  node {
    input: "conv2d_60/convolution/required_space_to_batch_paddings/crops_Concat__2507:0"
    input: "shape__1563"
    output: "Reshape__2574:0"
    name: "Reshape__2574"
    op_type: "Reshape"
    domain: ""
  }
  node {
    input: "Cast__2320:0"
    input: "const_ends__2170"
    input: "const_ends__2332"
    input: "zero__2713"
    output: "Slice__2334:0"
    name: "Slice__2334"
    op_type: "Slice"
    domain: ""
  }
  node {
    input: "Cast__2320:0"
    input: "const_ends__2332"
    input: "const_ends__573"
    input: "zero__2713"
    output: "Slice__2338:0"
    name: "Slice__2338"
    op_type: "Slice"
    domain: ""
  }
  node {
    input: "conv2d_transpose_17/strided_slice:0"
    input: "conv2d_transpose_17/stack_Unsqueeze__2119:0"
    input: "conv2d_transpose_17/stack_Unsqueeze__2120:0"
    input: "const_fold_opt__7487"
    output: "conv2d_transpose_17/stack_Concat__2122:0"
    name: "conv2d_transpose_17/stack_Concat__2122"
    op_type: "Concat"
    attribute {
      name: "axis"
      i: 0
      type: INT
    }
    domain: ""
  }
  node {
    input: "add_6/add:0"
    output: "activation_6/Relu:0"
    name: "activation_6/Relu"
    op_type: "Relu"
  }
  node {
    input: "Transpose__1303:0"
    output: "SpaceToDepth__1317:0"
    name: "SpaceToDepth__1317"
    op_type: "SpaceToDepth"
    attribute {
      name: "blocksize"
      i: 2
      type: INT
    }
    domain: ""
  }
  node {
    input: "conv2d_24/Relu:0"
    input: "Concat__6452:0"
    output: "Pad__871:0"
    name: "Pad__871"
    op_type: "Pad"
    domain: ""
  }
  node {
    input: "conv2d_transpose_9/Shape:0"
    output: "conv2d_transpose_9/Shape__3998:0"
    name: "conv2d_transpose_9/Shape__3998"
    op_type: "Cast"
    attribute {
      name: "to"
      i: 6
      type: INT
    }
  }
  node {
    input: "Shape__6349:0"
    input: "Const__7261"
    output: "Shape__4017:0"
    name: "Gather__6354"
    op_type: "Gather"
    domain: ""
  }
  node {
    input: "Shape__7105:0"
    input: "Const__7261"
    output: "conv2d_transpose_7/Shape:0"
    name: "Gather__7110"
    op_type: "Gather"
    domain: ""
  }
  node {
    input: "conv2d_transpose_7/conv2d_transpose:0"
    output: "Shape__6653:0"
    name: "Shape__6653"
    op_type: "Shape"
    domain: ""
  }
  node {
    input: "conv2d_transpose_4/strided_slice_1:0"
    output: "conv2d_transpose_4/strided_slice_1__697:0"
    name: "conv2d_transpose_4/strided_slice_1__697"
    op_type: "Squeeze"
    attribute {
      name: "axes"
      ints: 0
      type: INTS
    }
    domain: ""
  }
  node {
    input: "conv2d_transpose_4/strided_slice_2:0"
    output: "conv2d_transpose_4/strided_slice_2__693:0"
    name: "conv2d_transpose_4/strided_slice_2__693"
    op_type: "Squeeze"
    attribute {
      name: "axes"
      ints: 0
      type: INTS
    }
    domain: ""
  }
  node {
    input: "Cast__2977:0"
    output: "Split__2978:0"
    output: "Split__2978:1"
    output: "Split__2978:2"
    output: "Split__2978:3"
    name: "Split__2978"
    op_type: "Split"
    domain: ""
  }
  node {
    input: "Split__3018:0"
    input: "Split__3018:2"
    output: "Concat__3021:0"
    name: "Concat__3021"
    op_type: "Concat"
    attribute {
      name: "axis"
      i: 0
      type: INT
    }
    domain: ""
  }
  node {
    input: "Split__3018:1"
    input: "zero__2713"
    output: "Equal__3022:0"
    name: "Equal__3022"
    op_type: "Equal"
    domain: ""
  }
  node {
    input: "Split__3018:3"
    input: "zero__2713"
    output: "Equal__3030:0"
    name: "Equal__3030"
    op_type: "Equal"
    domain: ""
  }
  node {
    input: "conv2d_60/convolution/required_space_to_batch_paddings/paddings_Concat__2524:0"
    input: "shape__1563"
    output: "Reshape__2534:0"
    name: "Reshape__2534"
    op_type: "Reshape"
    domain: ""
  }
  node {
    input: "Reshape__2574:0"
…
    input: "const_ends__2170"
    input: "const_ends__2332"
    input: "zero__2713"
    output: "conv2d_92/convolution/required_space_to_batch_paddings/strided_slice_5:0"
    name: "conv2d_92/convolution/required_space_to_batch_paddings/strided_slice_5"
    op_type: "Slice"
    domain: ""
  }
  node {
    input: "const_fold_opt__7567"
    input: "conv2d_92/convolution/required_space_to_batch_paddings/strided_slice_6:0"
    output: "conv2d_92/convolution/required_space_to_batch_paddings/crops/0_Concat__4884:0"
    name: "conv2d_92/convolution/required_space_to_batch_paddings/crops/0_Concat__4884"
    op_type: "Concat"
    attribute {
      name: "axis"
      i: 0
      type: INT
    }
    domain: ""
  }
  node {
    input: "const_fold_opt__7567"
    input: "conv2d_92/convolution/required_space_to_batch_paddings/strided_slice_7:0"
    output: "conv2d_92/convolution/required_space_to_batch_paddings/crops/1_Concat__4877:0"
    name: "conv2d_92/convolution/required_space_to_batch_paddings/crops/1_Concat__4877"
    op_type: "Concat"
    attribute {
      name: "axis"
      i: 0
      type: INT
    }
    domain: ""
  }
  node {
    input: "const_fold_opt__7494"
    input: "conv2d_92/convolution/required_space_to_batch_paddings/strided_slice_3:0"
    output: "conv2d_92/convolution/required_space_to_batch_paddings/paddings/0_Concat__4901:0"
    name: "conv2d_92/convolution/required_space_to_batch_paddings/paddings/0_Concat__4901"
    op_type: "Concat"
    attribute {
      name: "axis"
      i: 0
      type: INT
    }
    domain: ""
  }
  node {
    input: "const_fold_opt__7494"
    input: "conv2d_92/convolution/required_space_to_batch_paddings/strided_slice_5:0"
    output: "conv2d_92/convolution/required_space_to_batch_paddings/paddings/1_Concat__4894:0"
    name: "conv2d_92/convolution/required_space_to_batch_paddings/paddings/1_Concat__4894"
    op_type: "Concat"
    attribute {
      name: "axis"
      i: 0
      type: INT
    }
    domain: ""
  }
  node {
    input: "conv2d_92/convolution/required_space_to_batch_paddings/crops/0_Concat__4884:0"
    output: "conv2d_92/convolution/required_space_to_batch_paddings/crops_Unsqueeze__4885:0"
    name: "conv2d_92/convolution/required_space_to_batch_paddings/crops_Unsqueeze__4885"
    op_type: "Unsqueeze"
    attribute {
      name: "axes"
      ints: 0
      type: INTS
    }
    domain: ""
  }
  node {
    input: "conv2d_92/convolution/required_space_to_batch_paddings/crops/1_Concat__4877:0"
    output: "conv2d_92/convolution/required_space_to_batch_paddings/crops_Unsqueeze__4886:0"
    name: "conv2d_92/convolution/required_space_to_batch_paddings/crops_Unsqueeze__4886"
    op_type: "Unsqueeze"
    attribute {
      name: "axes"
      ints: 0
      type: INTS
    }
    domain: ""
  }
  node {
    input: "conv2d_92/convolution/required_space_to_batch_paddings/paddings/0_Concat__4901:0"
    output: "conv2d_92/convolution/required_space_to_batch_paddings/paddings_Unsqueeze__4902:0"
    name: "conv2d_92/convolution/required_space_to_batch_paddings/paddings_Unsqueeze__4902"
    op_type: "Unsqueeze"
    attribute {
      name: "axes"
      ints: 0
      type: INTS
    }
    domain: ""
  }
  node {
    input: "conv2d_92/convolution/required_space_to_batch_paddings/paddings/1_Concat__4894:0"
    output: "conv2d_92/convolution/required_space_to_batch_paddings/paddings_Unsqueeze__4903:0"
    name: "conv2d_92/convolution/required_space_to_batch_paddings/paddings_Unsqueeze__4903"
    op_type: "Unsqueeze"
    attribute {
      name: "axes"
      ints: 0
      type: INTS
    }
    domain: ""
  }
  node {
    input: "conv2d_92/convolution/required_space_to_batch_paddings/crops_Unsqueeze__4885:0"
    input: "conv2d_92/convolution/required_space_to_batch_paddings/crops_Unsqueeze__4886:0"
    output: "conv2d_92/convolution/required_space_to_batch_paddings/crops_Concat__4887:0"
    name: "conv2d_92/convolution/required_space_to_batch_paddings/crops_Concat__4887"
    op_type: "Concat"
    attribute {
      name: "axis"
      i: 0
      type: INT
    }
    domain: ""
  }
  node {
    input: "conv2d_92/convolution/required_space_to_batch_paddings/paddings_Unsqueeze__4902:0"
    input: "conv2d_92/convolution/required_space_to_batch_paddings/paddings_Unsqueeze__4903:0"
    output: "conv2d_92/convolution/required_space_to_batch_paddings/paddings_Concat__4904:0"
    name: "conv2d_92/convolution/required_space_to_batch_paddings/paddings_Concat__4904"
    op_type: "Concat"
    attribute {
      name: "axis"
      i: 0
      type: INT
    }
    domain: ""
  }
  node {
    input: "conv2d_92/convolution/required_space_to_batch_paddings/crops_Concat__4887:0"
    input: "shape__1563"
    output: "Reshape__4954:0"
    name: "Reshape__4954"
    op_type: "Reshape"
    domain: ""
  }
  node {
    input: "conv2d_92/convolution/required_space_to_batch_paddings/paddings_Concat__4904:0"
    input: "shape__1563"
    output: "Reshape__4914:0"
    name: "Reshape__4914"
    op_type: "Reshape"
    domain: ""
  }
  node {
    input: "Reshape__4954:0"
    output: "Cast__4955:0"
    name: "Cast__4955"
    op_type: "Cast"
    attribute {
      name: "to"
      i: 7
      type: INT
    }
    domain: ""
  }
  node {
    input: "Reshape__4914:0"
    output: "Cast__4915:0"
    name: "Cast__4915"
    op_type: "Cast"
    attribute {
      name: "to"
      i: 7
      type: INT
    }
    domain: ""
  }
  node {
    input: "Cast__4955:0"
    output: "Split__4956:0"
    output: "Split__4956:1"
    output: "Split__4956:2"
    output: "Split__4956:3"
    name: "Split__4956"
    op_type: "Split"
    domain: ""
  }
  node {
    input: "Cast__4915:0"
    output: "Split__4916:0"
    output: "Split__4916:1"
    output: "Split__4916:2"
    output: "Split__4916:3"
    name: "Split__4916"
    op_type: "Split"
    domain: ""
  }
  node {
    input: "Split__4956:0"
    input: "Split__4956:2"
    output: "Concat__4959:0"
    name: "Concat__4959"
    op_type: "Concat"
    attribute {
      name: "axis"
      i: 0
      type: INT
    }
    domain: ""
  }
  node {
    input: "Split__4956:1"
    input: "zero__2713"
    output: "Equal__4960:0"
    name: "Equal__4960"
    op_type: "Equal"
    domain: ""
  }
  node {
    input: "Split__4956:3"
    input: "zero__2713"
    output: "Equal__4968:0"
    name: "Equal__4968"
    op_type: "Equal"
    domain: ""
  }
  node {
    input: "zero__2713"
    input: "zero__2713"
    input: "Split__4916:0"
    input: "Split__4916:2"
    input: "zero__2713"
    input: "zero__2713"
    input: "Split__4916:1"
    input: "Split__4916:3"
    output: "Concat__4918:0"
    name: "Concat__4918"
    op_type: "Concat"
    attribute {
      name: "axis"
      i: 0
      type: INT
    }
    domain: ""
  }
  node {
    input: "Equal__4960:0"
    output: "Cast__4962:0"
    name: "Cast__4962"
    op_type: "Cast"
    attribute {
      name: "to"
      i: 7
      type: INT
    }
    domain: ""
  }
  node {
    input: "Equal__4960:0"
    output: "Not__4961:0"
    name: "Not__4961"
    op_type: "Not"
    domain: ""
  }
  node {
    input: "Equal__4968:0"
    output: "Cast__4970:0"
    name: "Cast__4970"
    op_type: "Cast"
    attribute {
      name: "to"
      i: 7
      type: INT
    }
    domain: ""
  }
  node {
    input: "Equal__4968:0"
    output: "Not__4969:0"
    name: "Not__4969"
    op_type: "Not"
    domain: ""
  }
  node {
    input: "Concat__4918:0"
    output: "Split__6209:0"
    output: "Split__6209:1"
    output: "Split__6209:2"
    output: "Split__6209:3"
    output: "Split__6209:4"
    output: "Split__6209:5"
    output: "Split__6209:6"
    output: "Split__6209:7"
    name: "Split__6209"
    op_type: "Split"
    domain: ""
  }
  node {
    input: "int32_max__3404"
    input: "Cast__4962:0"
    output: "Mul__4966:0"
    name: "Mul__4966"
    op_type: "Mul"
    domain: ""
  }
  node {
    input: "Not__4961:0"
    output: "Cast__4963:0"
    name: "Cast__4963"
    op_type: "Cast"
    attribute {
      name: "to"
      i: 7
      type: INT
    }
    domain: ""
  }
  node {
    input: "int32_max__3404"
    input: "Cast__4970:0"
    output: "Mul__4974:0"
    name: "Mul__4974"
    op_type: "Mul"
    domain: ""
  }
  node {
    input: "Not__4969:0"
    output: "Cast__4971:0"
    name: "Cast__4971"
    op_type: "Cast"
    attribute {
      name: "to"
      i: 7
      type: INT
    }
    domain: ""
  }
  node {
    input: "Split__6209:1"
    input: "Split__6209:0"
    input: "Split__6209:2"
    input: "Split__6209:3"
    input: "Split__6209:5"
    input: "Split__6209:4"
    input: "Split__6209:6"
    input: "Split__6209:7"
    output: "Concat__6210:0"
    name: "Concat__6210"
    op_type: "Concat"
    attribute {
      name: "axis"
      i: 0
      type: INT
    }
    domain: ""
  }
  node {
    input: "Cast__4963:0"
    output: "Neg__4964:0"
    name: "Neg__4964"
    op_type: "Neg"
    domain: ""
  }
  node {
    input: "Cast__4971:0"
    output: "Neg__4972:0"
    name: "Neg__4972"
    op_type: "Neg"
    domain: ""
  }
  node {
    input: "Concat__6210:0"
    output: "Split__6211:0"
    output: "Split__6211:1"
    output: "Split__6211:2"
    output: "Split__6211:3"
    output: "Split__6211:4"
    output: "Split__6211:5"
    output: "Split__6211:6"
    output: "Split__6211:7"
    name: "Split__6211"
    op_type: "Split"
    domain: ""
  }
  node {
    input: "Split__4956:1"
    input: "Neg__4964:0"
    output: "Mul__4965:0"
    name: "Mul__4965"
    op_type: "Mul"
    domain: ""
  }
  node {
    input: "Split__4956:3"
    input: "Neg__4972:0"
    output: "Mul__4973:0"
    name: "Mul__4973"
    op_type: "Mul"
    domain: ""
  }
  node {
    input: "Split__6211:0"
    input: "Split__6211:2"
    input: "Split__6211:3"
    input: "Split__6211:1"
    input: "Split__6211:4"
    input: "Split__6211:6"
    input: "Split__6211:7"
    input: "Split__6211:5"
    output: "Concat__6212:0"
    name: "Concat__6212"
    op_type: "Concat"
    attribute {
      name: "axis"
      i: 0
      type: INT
    }
    domain: ""
  }
  node {
    input: "Mul__4965:0"
    input: "Mul__4966:0"
    output: "Add__4967:0"
    name: "Add__4967"
    op_type: "Add"
    domain: ""
  }
  node {
    input: "Mul__4973:0"
    input: "Mul__4974:0"
    output: "Add__4975:0"
    name: "Add__4975"
    op_type: "Add"
    domain: ""
  }
  node {
    input: "Concat__6212:0"
    output: "Split__7345:0"
    output: "Split__7345:1"
    output: "Split__7345:2"
    output: "Split__7345:3"
    output: "Split__7345:4"
    output: "Split__7345:5"
    output: "Split__7345:6"
    output: "Split__7345:7"
    name: "Split__7345"
    op_type: "Split"
    domain: ""
  }
  node {
    input: "Add__4967:0"
    input: "Add__4975:0"
    output: "Concat__4976:0"
    name: "Concat__4976"
    op_type: "Concat"
    attribute {
      name: "axis"
      i: 0
      type: INT
    }
    domain: ""
  }
  node {
    input: "Split__7345:0"
    input: "Split__7345:3"
    input: "Split__7345:1"
    input: "Split__7345:2"
    input: "Split__7345:4"
    input: "Split__7345:7"
    input: "Split__7345:5"
    input: "Split__7345:6"
    output: "Concat__7346:0"
    name: "Concat__7346"
    op_type: "Concat"
    attribute {
      name: "axis"
      i: 0
      type: INT
    }
    domain: ""
  }
  node {
    input: "Transpose__6205:0"
    input: "Concat__7346:0"
    output: "Pad__4919:0"
    name: "Pad__4919"
    op_type: "Pad"
    domain: ""
  }
  node {
    input: "Pad__4919:0"
    output: "Transpose__4909:0"
    name: "Transpose__4909"
    op_type: "Transpose"
    attribute {
      name: "perm"
      ints: 1
      ints: 0
      ints: 2
      ints: 3
      type: INTS
    }
    domain: ""
  }
  node {
    input: "Transpose__4909:0"
    output: "SpaceToDepth__4923:0"
    name: "SpaceToDepth__4923"
    op_type: "SpaceToDepth"
    attribute {
      name: "blocksize"
      i: 64
      type: INT
    }
    domain: ""
  }
  node {
    input: "SpaceToDepth__4923:0"
    output: "Transpose__4928:0"
    name: "Transpose__4928"
    op_type: "Transpose"
    attribute {
      name: "perm"
      ints: 1
      ints: 0
      ints: 2
      ints: 3
      type: INTS
    }
    domain: ""
  }
  node {
    input: "Transpose__4928:0"
    input: "conv2d_92/kernel/read:0"
    output: "conv2d_92/convolution:0"
    name: "conv2d_92/convolution"
    op_type: "Conv"
    attribute {
      name: "dilations"
      ints: 1
      ints: 1
      type: INTS
    }
    attribute {
      name: "strides"
      ints: 1
      ints: 1
      type: INTS
    }
    attribute {
      name: "kernel_shape"
      ints: 3
      ints: 3
      type: INTS
    }
    attribute {
      name: "group"
      i: 1
      type: INT
    }
  }
  node {
    input: "conv2d_92/convolution:0"
    output: "Transpose__4945:0"
    name: "Transpose__4945"
    op_type: "Transpose"
    attribute {
      name: "perm"
      ints: 1
      ints: 0
      ints: 2
      ints: 3
      type: INTS
    }
    domain: ""
  }
  node {
    input: "Transpose__4945:0"
    output: "DepthToSpace__4949:0"
    name: "DepthToSpace__4949"
    op_type: "DepthToSpace"
    attribute {
      name: "blocksize"
      i: 64
      type: INT
    }
    domain: ""
  }
  node {
    input: "DepthToSpace__4949:0"
    input: "Concat__4959:0"
    input: "Concat__4976:0"
    input: "conv2d_transpose_10/conv2d_transpose_const_slice_axes__4122"
    output: "Slice__4978:0"
    name: "Slice__4978"
    op_type: "Slice"
    domain: ""
  }
  node {
    input: "Slice__4978:0"
    input: "const_fold_opt__7670"
    output: "conv2d_92/BiasAdd:0"
    name: "conv2d_92/BiasAdd"
    op_type: "Add"
  }
  node {
    input: "conv2d_92/BiasAdd:0"
    output: "conv2d_92/Relu:0"
    name: "conv2d_92/Relu"
    op_type: "Relu"
  }
  node {
    input: "conv2d_92/Relu:0"
    output: "Transpose__6231:0"
    name: "Transpose__6231"
    op_type: "Transpose"
    attribute {
      name: "perm"
      ints: 1
      ints: 0
      ints: 2
      ints: 3
      type: INTS
    }
    domain: ""
  }
  node {
    input: "Transpose__6231:0"
    input: "conv2d_93/kernel/read:0"
    input: "conv2d_93/bias/read:0"
    output: "conv2d_93/BiasAdd:0"
    name: "conv2d_93/BiasAdd"
    op_type: "Conv"
    attribute {
      name: "dilations"
      ints: 1
      ints: 1
      type: INTS
    }
    attribute {
      name: "strides"
      ints: 1
      ints: 1
      type: INTS
    }
    attribute {
      name: "kernel_shape"
      ints: 3
      ints: 3
      type: INTS
    }
    attribute {
      name: "auto_pad"
      s: "SAME_UPPER"
      type: STRING
    }
    attribute {
      name: "group"
      i: 1
      type: INT
    }
    domain: ""
  }
  node {
    input: "conv2d_93/BiasAdd:0"
    output: "conv2d_93/Relu:0"
    name: "conv2d_93/Relu"
    op_type: "Relu"
  }
  node {
    input: "conv2d_93/Relu:0"
    input: "conv2d_94/kernel/read:0"
    input: "conv2d_94/bias/read:0"
    output: "conv2d_94/BiasAdd:0"
    name: "conv2d_94/BiasAdd"
    op_type: "Conv"
    attribute {
      name: "dilations"
      ints: 1
      ints: 1
      type: INTS
    }
    attribute {
      name: "strides"
      ints: 1
      ints: 1
      type: INTS
    }
    attribute {
      name: "kernel_shape"
      ints: 1
      ints: 1
      type: INTS
    }
    attribute {
      name: "auto_pad"
      s: "SAME_UPPER"
      type: STRING
    }
    attribute {
      name: "group"
      i: 1
      type: INT
    }
    domain: ""
  }
  node {
    input: "conv2d_85/BiasAdd:0"
    input: "conv2d_14/Sigmoid:0"
    input: "conv2d_94/BiasAdd:0"
    input: "fem1/BiasAdd__285:0"
    output: "concatenate_22/concat_raw_output___4:0"
    name: "concatenate_22/concat"
    op_type: "Concat"
    attribute {
      name: "axis"
      i: 1
      type: INT
    }
    domain: ""
  }
  node {
    input: "concatenate_22/concat_raw_output___4:0"
    output: "concatenate_22/concat:0"
    name: "Transpose__6247"
    op_type: "Transpose"
    attribute {
      name: "perm"
      ints: 0
      ints: 2
      ints: 3
      ints: 1
      type: INTS
    }
    domain: ""
  }
  initializer {
      dims: 1
      data_type: 7
      name: "zero__2713"
  }
  initializer {
      dims: 1
      data_type: 7
      name: "shape__1563"
  }
  initializer {
      dims: 1
      data_type: 7
      name: "int32_max__3404"
  }
  initializer {
      dims: 8
      dims: 8
      dims: 3
      dims: 3
      data_type: 1
      name: "fem9/kernel/read:0"
  }
  initializer {
      dims: 8
      data_type: 1
      name: "fem9/bias/read:0"
  }
  initializer {
      dims: 8
      dims: 8
      dims: 3
      dims: 3
      data_type: 1
      name: "fem8/kernel/read:0"
  }
  initializer {
      dims: 8
      data_type: 1
      name: "fem8/bias/read:0"
  }
  initializer {
      dims: 8
      dims: 8
      dims: 3
      dims: 3
      data_type: 1
      name: "fem7/kernel/read:0"
  }
  initializer {
      dims: 8
      data_type: 1
      name: "fem7/bias/read:0"
  }
  initializer {
      dims: 8
      dims: 8
      dims: 3
      dims: 3
      data_type: 1
      name: "fem6/kernel/read:0"
  }
  initializer {
      dims: 8
      data_type: 1
      name: "fem6/bias/read:0"
  }
  initializer {
      dims: 8
      dims: 8
      dims: 3
      dims: 3
      data_type: 1
      name: "fem5/kernel/read:0"
  }
  initializer {
      dims: 8
      data_type: 1
      name: "fem5/bias/read:0"
  }
  initializer {
      dims: 8
      dims: 8
      dims: 3
      dims: 3
      data_type: 1
      name: "fem4/kernel/read:0"
  }
  initializer {
      dims: 8
      data_type: 1
      name: "fem4/bias/read:0"
  }
  initializer {
      dims: 8
      dims: 8
      dims: 3
      dims: 3
      data_type: 1
      name: "fem3/kernel/read:0"
  }
  initializer {
      dims: 8
      data_type: 1
      name: "fem3/bias/read:0"
  }
  initializer {
      dims: 8
      dims: 8
      dims: 3
      dims: 3
      data_type: 1
      name: "fem2/kernel/read:0"
  }
  initializer {
      dims: 8
      data_type: 1
      name: "fem2/bias/read:0"
  }
  initializer {
      dims: 8
      dims: 8
      dims: 3
      dims: 3
      data_type: 1
      name: "fem10/kernel/read:0"
  }
  initializer {
      dims: 8
      data_type: 1
      name: "fem10/bias/read:0"
  }
  initializer {
      dims: 8
      dims: 3
      dims: 3
      dims: 3
      data_type: 1
      name: "fem1/kernel/read:0"
  }
  initializer {
      dims: 8
      data_type: 1
      name: "fem1/bias/read:0"
  }
  initializer {
      dims: 32
      dims: 32
      dims: 3
      dims: 3
      data_type: 1
      name: "conv2d_transpose_9/kernel/read:0"
  }
  initializer {
      dims: 16
      dims: 3
      dims: 5
      dims: 5
      data_type: 1
      name: "conv2d_transpose_8/kernel/read:0"
  }
  initializer {
      dims: 32
      dims: 8
      dims: 5
      dims: 5
      data_type: 1
      name: "conv2d_transpose_7/kernel/read:0"
  }
  initializer {
      data_type: 6
      name: "conv2d_transpose_7/add/y:0"
  }
  initializer {
      dims: 16
      dims: 16
      dims: 5
      dims: 5
      data_type: 1
      name: "conv2d_transpose_6/kernel/read:0"
  }
  initializer {
      dims: 8
      dims: 3
      dims: 7
      dims: 7
      data_type: 1
      name: "conv2d_transpose_5/kernel/read:0"
  }
  initializer {
      dims: 16
      dims: 8
      dims: 7
      dims: 7
      data_type: 1
      name: "conv2d_transpose_4/kernel/read:0"
  }
  initializer {
      data_type: 6
      name: "conv2d_transpose_4/add/y:0"
  }
  initializer {
      dims: 16
      dims: 16
      dims: 7
      dims: 7
      data_type: 1
      name: "conv2d_transpose_3/kernel/read:0"
  }
  initializer {
      dims: 16
      dims: 3
      dims: 3
      dims: 3
      data_type: 1
      name: "conv2d_transpose_22/kernel/read:0"
  }
  initializer {
      dims: 32
      dims: 16
      dims: 3
      dims: 3
      data_type: 1
      name: "conv2d_transpose_21/kernel/read:0"
  }
  initializer {
      dims: 32
      dims: 32
      dims: 3
      dims: 3
      data_type: 1
      name: "conv2d_transpose_20/kernel/read:0"
  }
  initializer {
      dims: 64
      dims: 16
      dims: 3
      dims: 3
      data_type: 1
      name: "conv2d_transpose_2/kernel/read:0"
  }
  initializer {
      dims: 16
      dims: 3
      dims: 5
      dims: 5
      data_type: 1
      name: "conv2d_transpose_19/kernel/read:0"
  }
  initializer {
      dims: 32
      dims: 8
      dims: 5
      dims: 5
      data_type: 1
      name: "conv2d_transpose_18/kernel/read:0"
  }
  initializer {
      dims: 16
      dims: 16
      dims: 5
      dims: 5
      data_type: 1
      name: "conv2d_transpose_17/kernel/read:0"
  }
  initializer {
      dims: 8
      dims: 3
      dims: 7
      dims: 7
      data_type: 1
      name: "conv2d_transpose_16/kernel/read:0"
  }
  initializer {
      dims: 16
      dims: 8
      dims: 7
      dims: 7
      data_type: 1
      name: "conv2d_transpose_15/kernel/read:0"
  }
  initializer {
      dims: 16
      dims: 16
      dims: 7
      dims: 7
      data_type: 1
      name: "conv2d_transpose_14/kernel/read:0"
  }
  initializer {
      dims: 64
      dims: 16
      dims: 3
      dims: 3
      data_type: 1
      name: "conv2d_transpose_13/kernel/read:0"
  }
  initializer {
      dims: 32
      dims: 32
      dims: 3
      dims: 3
      data_type: 1
      name: "conv2d_transpose_12/kernel/read:0"
  }
  initializer {
      dims: 16
      dims: 3
      dims: 3
      dims: 3
      data_type: 1
      name: "conv2d_transpose_11/kernel/read:0"
  }
  initializer {
      data_type: 6
      name: "conv2d_transpose_10/mul/y:0"
  }
  initializer {
      dims: 32
      dims: 16
      dims: 3
      dims: 3
      data_type: 1
      name: "conv2d_transpose_10/kernel/read:0"
  }
  initializer {
      dims: 2
      data_type: 7
      name: "conv2d_transpose_10/conv2d_transpose_const_slice_axes__4122"
  }
  initializer {
      dims: 32
      dims: 32
      dims: 3
      dims: 3
      data_type: 1
      name: "conv2d_transpose_1/kernel/read:0"
  }
  initializer {
      dims: 3
      dims: 24
      dims: 1
      dims: 1
      data_type: 1
      name: "conv2d_94/kernel/read:0"
  }
  initializer {
      dims: 3
      data_type: 1
      name: "conv2d_94/bias/read:0"
  }
  initializer {
      dims: 24
      dims: 24
      dims: 3
      dims: 3
      data_type: 1
      name: "conv2d_93/kernel/read:0"
  }
  initializer {
      dims: 24
      data_type: 1
      name: "conv2d_93/bias/read:0"
  }
  initializer {
      dims: 24
      dims: 24
      dims: 3
      dims: 3
      data_type: 1
      name: "conv2d_92/kernel/read:0"
  }
  initializer {
      dims: 24
      dims: 24
      dims: 3
      dims: 3
      data_type: 1
      name: "conv2d_91/kernel/read:0"
  }
  initializer {
      dims: 24
      dims: 24
      dims: 3
      dims: 3
      data_type: 1
      name: "conv2d_90/kernel/read:0"
  }
  initializer {
      dims: 2
      data_type: 6
      name: "conv2d_90/convolution/required_space_to_batch_paddings/strided_slice_1:0"
  }
  initializer {
      dims: 64
      dims: 128
      dims: 3
      dims: 3
      data_type: 1
      name: "conv2d_9/kernel/read:0"
  }
  initializer {
      dims: 64
      data_type: 1
      name: "conv2d_9/bias/read:0"
  }
  initializer {
      dims: 24
      dims: 24
      dims: 3
      dims: 3
      data_type: 1
      name: "conv2d_89/kernel/read:0"
  }
  initializer {
      dims: 24
      dims: 24
      dims: 3
      dims: 3
      data_type: 1
      name: "conv2d_88/kernel/read:0"
  }
  initializer {
      dims: 24
      dims: 24
      dims: 3
      dims: 3
      data_type: 1
      name: "conv2d_87/kernel/read:0"
  }
  initializer {
      dims: 24
      dims: 3
      dims: 3
      dims: 3
      data_type: 1
      name: "conv2d_86/kernel/read:0"
  }
  initializer {
      dims: 24
      data_type: 1
      name: "conv2d_86/bias/read:0"
  }
  initializer {
      dims: 3
      dims: 31
      dims: 1
      dims: 1
      data_type: 1
      name: "conv2d_85/kernel/read:0"
  }
  initializer {
      dims: 3
      data_type: 1
      name: "conv2d_85/bias/read:0"
  }
  initializer {
      dims: 32
      dims: 32
      dims: 3
      dims: 3
      data_type: 1
      name: "conv2d_84/kernel/read:0"
  }
  initializer {
      dims: 32
      data_type: 1
      name: "conv2d_84/bias/read:0"
  }
  initializer {
      dims: 32
      dims: 32
      dims: 3
      dims: 3
      data_type: 1
      name: "conv2d_83/kernel/read:0"
  }
  initializer {
      dims: 32
      data_type: 1
      name: "conv2d_83/bias/read:0"
  }
  initializer {
      dims: 32
      dims: 32
      dims: 3
      dims: 3
      data_type: 1
      name: "conv2d_82/kernel/read:0"
  }
  initializer {
      dims: 32
      data_type: 1
      name: "conv2d_82/bias/read:0"
  }
  initializer {
      dims: 32
      dims: 32
      dims: 3
      dims: 3
      data_type: 1
      name: "conv2d_81/kernel/read:0"
  }
  initializer {
      dims: 32
      data_type: 1
      name: "conv2d_81/bias/read:0"
  }
  initializer {
      dims: 32
      dims: 32
      dims: 3
      dims: 3
      data_type: 1
      name: "conv2d_80/kernel/read:0"
  }
  initializer {
      dims: 32
      data_type: 1
      name: "conv2d_80/bias/read:0"
  }
  initializer {
      dims: 64
      dims: 64
      dims: 3
      dims: 3
      data_type: 1
      name: "conv2d_8/kernel/read:0"
  }
  initializer {
      dims: 64
      data_type: 1
      name: "conv2d_8/bias/read:0"
  }
  initializer {
      dims: 32
      dims: 32
      dims: 3
      dims: 3
      data_type: 1
      name: "conv2d_79/kernel/read:0"
  }
  initializer {
      dims: 32
      data_type: 1
      name: "conv2d_79/bias/read:0"
  }
  initializer {
      dims: 32
      dims: 32
      dims: 3
      dims: 3
      data_type: 1
      name: "conv2d_78/kernel/read:0"
  }
  initializer {
      dims: 32
      data_type: 1
      name: "conv2d_78/bias/read:0"
  }
  initializer {
      dims: 32
      dims: 32
      dims: 3
      dims: 3
      data_type: 1
      name: "conv2d_77/kernel/read:0"
  }
  initializer {
      dims: 32
      data_type: 1
      name: "conv2d_77/bias/read:0"
  }
  initializer {
      dims: 32
      dims: 16
      dims: 3
      dims: 3
      data_type: 1
      name: "conv2d_76/kernel/read:0"
  }
  initializer {
      dims: 32
      data_type: 1
      name: "conv2d_76/bias/read:0"
  }
  initializer {
      dims: 16
      dims: 8
      dims: 3
      dims: 3
      data_type: 1
      name: "conv2d_75/kernel/read:0"
  }
  initializer {
      dims: 16
      data_type: 1
      name: "conv2d_75/bias/read:0"
  }
  initializer {
      dims: 8
      dims: 9
      dims: 3
      dims: 3
      data_type: 1
      name: "conv2d_74/kernel/read:0"
  }
  initializer {
      dims: 8
      data_type: 1
      name: "conv2d_74/bias/read:0"
  }
  initializer {
      dims: 16
      dims: 16
      dims: 5
      dims: 5
      data_type: 1
      name: "conv2d_73/kernel/read:0"
  }
  initializer {
      dims: 16
      data_type: 1
      name: "conv2d_73/bias/read:0"
  }
  initializer {
      dims: 16
      dims: 8
      dims: 5
      dims: 5
      data_type: 1
      name: "conv2d_72/kernel/read:0"
  }
  initializer {
      dims: 16
      data_type: 1
      name: "conv2d_72/bias/read:0"
  }
  initializer {
      dims: 8
      dims: 8
      dims: 5
      dims: 5
      data_type: 1
      name: "conv2d_71/kernel/read:0"
  }
  initializer {
      dims: 8
      data_type: 1
      name: "conv2d_71/bias/read:0"
  }
  initializer {
      dims: 8
      dims: 9
      dims: 3
      dims: 3
      data_type: 1
      name: "conv2d_70/kernel/read:0"
  }
  initializer {
      dims: 8
      data_type: 1
      name: "conv2d_70/bias/read:0"
  }
  initializer {
      dims: 64
      dims: 64
      dims: 3
      dims: 3
      data_type: 1
      name: "conv2d_7/kernel/read:0"
  }
  initializer {
      dims: 64
      data_type: 1
      name: "conv2d_7/bias/read:0"
  }
  initializer {
      dims: 16
      dims: 16
      dims: 7
      dims: 7
      data_type: 1
      name: "conv2d_69/kernel/read:0"
  }
  initializer {
      dims: 16
      data_type: 1
      name: "conv2d_69/bias/read:0"
  }
  initializer {
      dims: 16
      dims: 8
      dims: 7
      dims: 7
      data_type: 1
      name: "conv2d_68/kernel/read:0"
  }
  initializer {
      dims: 16
      data_type: 1
      name: "conv2d_68/bias/read:0"
  }
  initializer {
      dims: 8
      dims: 8
      dims: 7
      dims: 7
      data_type: 1
      name: "conv2d_67/kernel/read:0"
  }
  initializer {
      dims: 8
      data_type: 1
      name: "conv2d_67/bias/read:0"
  }
  initializer {
      dims: 8
      dims: 9
      dims: 3
      dims: 3
      data_type: 1
      name: "conv2d_66/kernel/read:0"
  }
  initializer {
      dims: 8
      data_type: 1
      name: "conv2d_66/bias/read:0"
  }
  initializer {
      dims: 3
      dims: 32
      dims: 3
      dims: 3
      data_type: 1
      name: "conv2d_65/kernel/read:0"
  }
  initializer {
      dims: 3
      data_type: 1
      name: "conv2d_65/bias/read:0"
  }
  initializer {
      dims: 32
      dims: 32
      dims: 3
      dims: 3
      data_type: 1
      name: "conv2d_64/kernel/read:0"
  }
  initializer {
      dims: 32
      data_type: 1
      name: "conv2d_64/bias/read:0"
  }
  initializer {
      dims: 32
      dims: 32
      dims: 3
      dims: 3
      data_type: 1
      name: "conv2d_63/kernel/read:0"
  }
  initializer {
      dims: 32
      data_type: 1
      name: "conv2d_63/bias/read:0"
  }
  initializer {
      dims: 32
      dims: 32
      dims: 3
      dims: 3
      data_type: 1
      name: "conv2d_62/kernel/read:0"
  }
  initializer {
      dims: 2
      data_type: 6
      name: "conv2d_62/convolution/dilation_rate:0"
  }
  initializer {
      dims: 32
      dims: 16
      dims: 3
      dims: 3
      data_type: 1
      name: "conv2d_61/kernel/read:0"
  }
  initializer {
      dims: 32
      data_type: 1
      name: "conv2d_61/bias/read:0"
  }
  initializer {
      dims: 16
      dims: 8
      dims: 5
      dims: 5
      data_type: 1
      name: "conv2d_60/kernel/read:0"
  }
  initializer {
      dims: 64
      dims: 64
      dims: 3
      dims: 3
      data_type: 1
      name: "conv2d_6/kernel/read:0"
  }
  initializer {
      dims: 64
      data_type: 1
      name: "conv2d_6/bias/read:0"
  }
  initializer {
      dims: 8
      dims: 9
      dims: 3
      dims: 3
      data_type: 1
      name: "conv2d_59/kernel/read:0"
  }
  initializer {
      dims: 8
      data_type: 1
      name: "conv2d_59/bias/read:0"
  }
  initializer {
      dims: 3
      dims: 24
      dims: 1
      dims: 1
      data_type: 1
      name: "conv2d_58/kernel/read:0"
  }
  initializer {
      dims: 3
      data_type: 1
      name: "conv2d_58/bias/read:0"
  }
  initializer {
      dims: 24
      dims: 24
      dims: 3
      dims: 3
      data_type: 1
      name: "conv2d_57/kernel/read:0"
  }
  initializer {
      dims: 24
      data_type: 1
      name: "conv2d_57/bias/read:0"
  }
  initializer {
      dims: 24
      dims: 24
      dims: 3
      dims: 3
      data_type: 1
      name: "conv2d_56/kernel/read:0"
  }
  initializer {
      dims: 24
      dims: 24
      dims: 3
      dims: 3
      data_type: 1
      name: "conv2d_55/kernel/read:0"
  }
  initializer {
      dims: 2
      data_type: 6
      name: "conv2d_55/convolution/dilation_rate:0"
  }
  initializer {
      dims: 24
      dims: 24
      dims: 3
      dims: 3
      data_type: 1
      name: "conv2d_54/kernel/read:0"
  }
  initializer {
      dims: 24
      dims: 24
      dims: 3
      dims: 3
      data_type: 1
      name: "conv2d_53/kernel/read:0"
  }
  initializer {
      dims: 24
      dims: 24
      dims: 3
      dims: 3
      data_type: 1
      name: "conv2d_52/kernel/read:0"
  }
  initializer {
      dims: 2
      data_type: 6
      name: "conv2d_52/convolution/required_space_to_batch_paddings/strided_slice_1:0"
  }
  initializer {
      dims: 24
      dims: 24
      dims: 3
      dims: 3
      data_type: 1
      name: "conv2d_51/kernel/read:0"
  }
  initializer {
      dims: 24
      dims: 9
      dims: 3
      dims: 3
      data_type: 1
      name: "conv2d_50/kernel/read:0"
  }
  initializer {
      dims: 24
      data_type: 1
      name: "conv2d_50/bias/read:0"
  }
  initializer {
      dims: 64
      dims: 64
      dims: 3
      dims: 3
      data_type: 1
      name: "conv2d_5/kernel/read:0"
  }
  initializer {
      dims: 64
      data_type: 1
      name: "conv2d_5/bias/read:0"
  }
  initializer {
      dims: 32
      dims: 32
      dims: 3
      dims: 3
      data_type: 1
      name: "conv2d_49/kernel/read:0"
  }
  initializer {
      dims: 32
      data_type: 1
      name: "conv2d_49/bias/read:0"
  }
  initializer {
      dims: 32
      dims: 32
      dims: 3
      dims: 3
      data_type: 1
      name: "conv2d_48/kernel/read:0"
  }
  initializer {
      dims: 32
      data_type: 1
      name: "conv2d_48/bias/read:0"
  }
  initializer {
      dims: 32
      dims: 32
      dims: 3
      dims: 3
      data_type: 1
      name: "conv2d_47/kernel/read:0"
  }
  initializer {
      dims: 32
      data_type: 1
      name: "conv2d_47/bias/read:0"
  }
  initializer {
      dims: 32
      dims: 32
      dims: 3
      dims: 3
      data_type: 1
      name: "conv2d_46/kernel/read:0"
  }
  initializer {
      dims: 32
      data_type: 1
      name: "conv2d_46/bias/read:0"
  }
  initializer {
      dims: 32
      dims: 32
      dims: 3
      dims: 3
      data_type: 1
      name: "conv2d_45/kernel/read:0"
  }
  initializer {
      dims: 32
      data_type: 1
      name: "conv2d_45/bias/read:0"
  }
  initializer {
      dims: 32
      dims: 32
      dims: 3
      dims: 3
      data_type: 1
      name: "conv2d_44/kernel/read:0"
  }
  initializer {
      dims: 32
      data_type: 1
      name: "conv2d_44/bias/read:0"
  }
  initializer {
      dims: 32
      dims: 32
      dims: 3
      dims: 3
      data_type: 1
      name: "conv2d_43/kernel/read:0"
  }
  initializer {
      dims: 32
      data_type: 1
      name: "conv2d_43/bias/read:0"
  }
  initializer {
      dims: 32
      dims: 32
      dims: 3
      dims: 3
      data_type: 1
      name: "conv2d_42/kernel/read:0"
  }
  initializer {
      dims: 32
      data_type: 1
      name: "conv2d_42/bias/read:0"
  }
  initializer {
      dims: 32
      dims: 16
      dims: 3
      dims: 3
      data_type: 1
      name: "conv2d_41/kernel/read:0"
  }
  initializer {
      dims: 32
      data_type: 1
      name: "conv2d_41/bias/read:0"
  }
  initializer {
      dims: 16
      dims: 8
      dims: 3
      dims: 3
      data_type: 1
      name: "conv2d_40/kernel/read:0"
  }
  initializer {
      dims: 16
      data_type: 1
      name: "conv2d_40/bias/read:0"
  }
  initializer {
      dims: 64
      dims: 32
      dims: 3
      dims: 3
      data_type: 1
      name: "conv2d_4/kernel/read:0"
  }
  initializer {
      dims: 64
      data_type: 1
      name: "conv2d_4/bias/read:0"
  }
  initializer {
      dims: 8
      dims: 8
      dims: 3
      dims: 3
      data_type: 1
      name: "conv2d_39/kernel/read:0"
  }
  initializer {
      dims: 8
      data_type: 1
      name: "conv2d_39/bias/read:0"
  }
  initializer {
      dims: 16
      dims: 16
      dims: 5
      dims: 5
      data_type: 1
      name: "conv2d_38/kernel/read:0"
  }
  initializer {
      dims: 16
      data_type: 1
      name: "conv2d_38/bias/read:0"
  }
  initializer {
      dims: 16
      dims: 8
      dims: 5
      dims: 5
      data_type: 1
      name: "conv2d_37/kernel/read:0"
  }
  initializer {
      dims: 16
      data_type: 1
      name: "conv2d_37/bias/read:0"
  }
  initializer {
      dims: 8
      dims: 8
      dims: 5
      dims: 5
      data_type: 1
      name: "conv2d_36/kernel/read:0"
  }
  initializer {
      dims: 8
      data_type: 1
      name: "conv2d_36/bias/read:0"
  }
  initializer {
      dims: 8
      dims: 8
      dims: 3
      dims: 3
      data_type: 1
      name: "conv2d_35/kernel/read:0"
  }
  initializer {
      dims: 8
      data_type: 1
      name: "conv2d_35/bias/read:0"
  }
  initializer {
      dims: 16
      dims: 16
      dims: 7
      dims: 7
      data_type: 1
      name: "conv2d_34/kernel/read:0"
  }
  initializer {
      dims: 16
      data_type: 1
      name: "conv2d_34/bias/read:0"
  }
  initializer {
      dims: 16
      dims: 8
      dims: 7
      dims: 7
      data_type: 1
      name: "conv2d_33/kernel/read:0"
  }
  initializer {
      dims: 16
      data_type: 1
      name: "conv2d_33/bias/read:0"
  }
  initializer {
      dims: 8
      dims: 8
      dims: 7
      dims: 7
      data_type: 1
      name: "conv2d_32/kernel/read:0"
  }
  initializer {
      dims: 8
      data_type: 1
      name: "conv2d_32/bias/read:0"
  }
  initializer {
      dims: 8
      dims: 8
      dims: 3
      dims: 3
      data_type: 1
      name: "conv2d_31/kernel/read:0"
  }
  initializer {
      dims: 8
      data_type: 1
      name: "conv2d_31/bias/read:0"
  }
  initializer {
      dims: 3
      dims: 32
      dims: 3
      dims: 3
      data_type: 1
      name: "conv2d_30/kernel/read:0"
  }
  initializer {
      dims: 3
      data_type: 1
      name: "conv2d_30/bias/read:0"
  }
  initializer {
      dims: 32
      dims: 16
      dims: 3
      dims: 3
      data_type: 1
      name: "conv2d_3/kernel/read:0"
  }
  initializer {
      dims: 32
      data_type: 1
      name: "conv2d_3/bias/read:0"
  }
  initializer {
      dims: 32
      dims: 32
      dims: 3
      dims: 3
      data_type: 1
      name: "conv2d_29/kernel/read:0"
  }
  initializer {
      dims: 32
      data_type: 1
      name: "conv2d_29/bias/read:0"
  }
  initializer {
      dims: 32
      dims: 32
      dims: 3
      dims: 3
      data_type: 1
      name: "conv2d_28/kernel/read:0"
  }
  initializer {
      dims: 32
      data_type: 1
      name: "conv2d_28/bias/read:0"
  }
  initializer {
      dims: 32
      dims: 32
      dims: 3
      dims: 3
      data_type: 1
      name: "conv2d_27/kernel/read:0"
  }
  initializer {
      dims: 32
      dims: 16
      dims: 3
      dims: 3
      data_type: 1
      name: "conv2d_26/kernel/read:0"
  }
  initializer {
      dims: 32
      data_type: 1
      name: "conv2d_26/bias/read:0"
  }
  initializer {
      dims: 16
      dims: 8
      dims: 5
      dims: 5
      data_type: 1
      name: "conv2d_25/kernel/read:0"
  }
  initializer {
      dims: 2
      data_type: 6
      name: "conv2d_25/convolution/required_space_to_batch_paddings/add:0"
  }
  initializer {
      dims: 8
      dims: 8
      dims: 3
      dims: 3
      data_type: 1
      name: "conv2d_24/kernel/read:0"
  }
  initializer {
      dims: 8
      data_type: 1
      name: "conv2d_24/bias/read:0"
  }
  initializer {
      dims: 3
      dims: 24
      dims: 1
      dims: 1
      data_type: 1
      name: "conv2d_23/kernel/read:0"
  }
  initializer {
      dims: 3
      data_type: 1
      name: "conv2d_23/bias/read:0"
  }
  initializer {
      dims: 24
      dims: 24
      dims: 3
      dims: 3
      data_type: 1
      name: "conv2d_22/kernel/read:0"
  }
  initializer {
      dims: 24
      data_type: 1
      name: "conv2d_22/bias/read:0"
  }
  initializer {
      dims: 24
      dims: 24
      dims: 3
      dims: 3
      data_type: 1
      name: "conv2d_21/kernel/read:0"
  }
  initializer {
      dims: 2
      data_type: 6
      name: "conv2d_21/convolution/required_space_to_batch_paddings/add:0"
  }
  initializer {
      dims: 2
      data_type: 6
      name: "conv2d_21/convolution/dilation_rate:0"
  }
  initializer {
      dims: 24
      dims: 24
      dims: 3
      dims: 3
      data_type: 1
      name: "conv2d_20/kernel/read:0"
  }
  initializer {
      dims: 16
      dims: 8
      dims: 3
      dims: 3
      data_type: 1
      name: "conv2d_2/kernel/read:0"
  }
  initializer {
      dims: 16
      data_type: 1
      name: "conv2d_2/bias/read:0"
  }
  initializer {
      dims: 24
      dims: 24
      dims: 3
      dims: 3
      data_type: 1
      name: "conv2d_19/kernel/read:0"
  }
  initializer {
      dims: 24
      dims: 24
      dims: 3
      dims: 3
      data_type: 1
      name: "conv2d_18/kernel/read:0"
  }
  initializer {
      dims: 24
      dims: 24
      dims: 3
      dims: 3
      data_type: 1
      name: "conv2d_17/kernel/read:0"
  }
  initializer {
      dims: 24
      dims: 24
      dims: 3
      dims: 3
      data_type: 1
      name: "conv2d_16/kernel/read:0"
  }
  initializer {
      dims: 24
      dims: 8
      dims: 3
      dims: 3
      data_type: 1
      name: "conv2d_15/kernel/read:0"
  }
  initializer {
      dims: 24
      data_type: 1
      name: "conv2d_15/bias/read:0"
  }
  initializer {
      dims: 1
      dims: 16
      dims: 3
      dims: 3
      data_type: 1
      name: "conv2d_14/kernel/read:0"
  }
  initializer {
      dims: 1
      data_type: 1
      name: "conv2d_14/bias/read:0"
  }
  initializer {
      dims: 8
      dims: 32
      dims: 3
      dims: 3
      data_type: 1
      name: "conv2d_13/kernel/read:0"
  }
  initializer {
      dims: 8
      data_type: 1
      name: "conv2d_13/bias/read:0"
  }
  initializer {
      dims: 16
      dims: 64
      dims: 3
      dims: 3
      data_type: 1
      name: "conv2d_12/kernel/read:0"
  }
  initializer {
      dims: 16
      data_type: 1
      name: "conv2d_12/bias/read:0"
  }
  initializer {
      dims: 32
      dims: 128
      dims: 3
      dims: 3
      data_type: 1
      name: "conv2d_11/kernel/read:0"
  }
  initializer {
      dims: 32
      data_type: 1
      name: "conv2d_11/bias/read:0"
  }
  initializer {
      dims: 64
      dims: 128
      dims: 3
      dims: 3
      data_type: 1
      name: "conv2d_10/kernel/read:0"
  }
  initializer {
      dims: 64
      data_type: 1
      name: "conv2d_10/bias/read:0"
  }
  initializer {
      dims: 8
      dims: 3
      dims: 3
      dims: 3
      data_type: 1
      name: "conv2d_1/kernel/read:0"
  }
  initializer {
      dims: 8
      data_type: 1
      name: "conv2d_1/bias/read:0"
  }
  initializer {
      dims: 4
      data_type: 7
      name: "const_starts__282"
  }
  initializer {
      dims: 4
      data_type: 7
      name: "const_starts__279"
  }
  initializer {
      dims: 24
      dims: 1
      dims: 1
      dims: 1
      data_type: 1
      name: "const_fold_opt__7701"
  }
  initializer {
      dims: 1
      dims: 3
      dims: 1
      dims: 1
      data_type: 1
      name: "const_fold_opt__7700"
  }
  initializer {
      dims: 16
      dims: 1
      dims: 1
      dims: 1
      data_type: 1
      name: "const_fold_opt__7699"
  }
  initializer {
      dims: 16
      dims: 1
      dims: 1
      dims: 1
      data_type: 1
      name: "const_fold_opt__7697"
  }
  initializer {
      dims: 1
      dims: 16
      dims: 1
      dims: 1
      data_type: 1
      name: "const_fold_opt__7696"
  }
  initializer {
      dims: 1
      dims: 3
      dims: 1
      dims: 1
      data_type: 1
      name: "const_fold_opt__7695"
  }
  initializer {
      dims: 24
      dims: 1
      dims: 1
      dims: 1
      data_type: 1
      name: "const_fold_opt__7693"
  }
  initializer {
      dims: 32
      dims: 1
      dims: 1
      dims: 1
      data_type: 1
      name: "const_fold_opt__7691"
  }
  initializer {
      dims: 1
      dims: 16
      dims: 1
      dims: 1
      data_type: 1
      name: "const_fold_opt__7690"
  }
  initializer {
      dims: 1
      dims: 32
      dims: 1
      dims: 1
      data_type: 1
      name: "const_fold_opt__7689"
  }
  initializer {
      dims: 24
      dims: 1
      dims: 1
      dims: 1
      data_type: 1
      name: "const_fold_opt__7687"
  }
  initializer {
      dims: 24
      dims: 1
      dims: 1
      dims: 1
      data_type: 1
      name: "const_fold_opt__7686"
  }
  initializer {
      dims: 24
      dims: 1
      dims: 1
      dims: 1
      data_type: 1
      name: "const_fold_opt__7685"
  }
  initializer {
      dims: 24
      dims: 1
      dims: 1
      dims: 1
      data_type: 1
      name: "const_fold_opt__7684"
  }
  initializer {
      dims: 32
      dims: 1
      dims: 1
      dims: 1
      data_type: 1
      name: "const_fold_opt__7683"
  }
  initializer {
      dims: 24
      dims: 1
      dims: 1
      dims: 1
      data_type: 1
      name: "const_fold_opt__7680"
  }
  initializer {
      dims: 24
      dims: 1
      dims: 1
      dims: 1
      data_type: 1
      name: "const_fold_opt__7679"
  }
  initializer {
      dims: 24
      dims: 1
      dims: 1
      dims: 1
      data_type: 1
      name: "const_fold_opt__7678"
  }
  initializer {
      dims: 24
      dims: 1
      dims: 1
      dims: 1
      data_type: 1
      name: "const_fold_opt__7677"
  }
  initializer {
      dims: 24
      dims: 1
      dims: 1
      dims: 1
      data_type: 1
      name: "const_fold_opt__7676"
  }
  initializer {
      dims: 24
      dims: 1
      dims: 1
      dims: 1
      data_type: 1
      name: "const_fold_opt__7674"
  }
  initializer {
      dims: 24
      dims: 1
      dims: 1
      dims: 1
      data_type: 1
      name: "const_fold_opt__7673"
  }
  initializer {
      dims: 24
      dims: 1
      dims: 1
      dims: 1
      data_type: 1
      name: "const_fold_opt__7672"
  }
  initializer {
      dims: 24
      dims: 1
      dims: 1
      dims: 1
      data_type: 1
      name: "const_fold_opt__7670"
  }
  initializer {
      dims: 1
      dims: 16
      dims: 1
      dims: 1
      data_type: 1
      name: "const_fold_opt__7663"
  }
  initializer {
      dims: 1
      dims: 8
      dims: 1
      dims: 1
      data_type: 1
      name: "const_fold_opt__7662"
  }
  initializer {
      dims: 24
      dims: 1
      dims: 1
      dims: 1
      data_type: 1
      name: "const_fold_opt__7661"
  }
  initializer {
      dims: 1
      dims: 16
      dims: 1
      dims: 1
      data_type: 1
      name: "const_fold_opt__7654"
  }
  initializer {
      dims: 1
      dims: 8
      dims: 1
      dims: 1
      data_type: 1
      name: "const_fold_opt__7653"
  }
  initializer {
      dims: 1
      dims: 16
      dims: 1
      dims: 1
      data_type: 1
      name: "const_fold_opt__7652"
  }
  initializer {
      dims: 1
      data_type: 6
      name: "const_fold_opt__7646"
  }
  initializer {
      dims: 1
      dims: 3
      dims: 1
      dims: 1
      data_type: 1
      name: "const_fold_opt__7640"
  }
  initializer {
      dims: 1
      dims: 16
      dims: 1
      dims: 1
      data_type: 1
      name: "const_fold_opt__7638"
  }
  initializer {
      dims: 1
      dims: 8
      dims: 1
      dims: 1
      data_type: 1
      name: "const_fold_opt__7637"
  }
  initializer {
      dims: 24
      dims: 1
      dims: 1
      dims: 1
      data_type: 1
      name: "const_fold_opt__7636"
  }
  initializer {
      dims: 1
      dims: 1
      dims: 1
      dims: 1
      data_type: 1
      name: "const_fold_opt__7632"
  }
  initializer {
      dims: 1
      dims: 3
      dims: 1
      dims: 1
      data_type: 1
      name: "const_fold_opt__7629"
  }
  initializer {
      dims: 1
      dims: 32
      dims: 1
      dims: 1
      data_type: 1
      name: "const_fold_opt__7621"
  }
  initializer {
      dims: 1
      data_type: 6
      name: "const_fold_opt__7592"
  }
  initializer {
      dims: 1
      dims: 32
      dims: 1
      dims: 1
      data_type: 1
      name: "const_fold_opt__7580"
  }
  initializer {
      dims: 1
      data_type: 6
      name: "const_fold_opt__7567"
  }
  initializer {
      dims: 1
      data_type: 6
      name: "const_fold_opt__7564"
  }
  initializer {
      dims: 24
      dims: 1
      dims: 1
      dims: 1
      data_type: 1
      name: "const_fold_opt__7560"
  }
  initializer {
      dims: 1
      data_type: 6
      name: "const_fold_opt__7548"
  }
  initializer {
      dims: 1
      data_type: 6
      name: "const_fold_opt__7538"
  }
  initializer {
      dims: 1
      dims: 8
      dims: 1
      dims: 1
      data_type: 1
      name: "const_fold_opt__7519"
  }
  initializer {
      dims: 1
      dims: 3
      dims: 1
      dims: 1
      data_type: 1
      name: "const_fold_opt__7518"
  }
  initializer {
      dims: 1
      dims: 16
      dims: 1
      dims: 1
      data_type: 1
      name: "const_fold_opt__7516"
  }
  initializer {
      dims: 1
      dims: 32
      dims: 1
      dims: 1
      data_type: 1
      name: "const_fold_opt__7514"
  }
  initializer {
      dims: 1
      dims: 3
      dims: 1
      dims: 1
      data_type: 1
      name: "const_fold_opt__7511"
  }
  initializer {
      dims: 1
      dims: 16
      dims: 1
      dims: 1
      data_type: 1
      name: "const_fold_opt__7510"
  }
  initializer {
      dims: 1
      data_type: 6
      name: "const_fold_opt__7494"
  }
  initializer {
      dims: 1
      data_type: 6
      name: "const_fold_opt__7487"
  }
  initializer {
      dims: 1
      data_type: 7
      name: "const_ends__573"
  }
  initializer {
      dims: 4
      data_type: 7
      name: "const_ends__283"
  }
  initializer {
      dims: 4
      data_type: 7
      name: "const_ends__280"
  }
  initializer {
      dims: 1
      data_type: 7
      name: "const_ends__2332"
  }
  initializer {
      dims: 1
      data_type: 7
      name: "const_ends__2170"
  }
  initializer {
      dims: 0
      data_type: 1
      name: "const_empty_float__131"
  }
  initializer {
      dims: 5
      data_type: 7
      name: "Transpose__7081_shape__7703"
  }
  initializer {
      dims: 4
      data_type: 7
      name: "Const__7261"
  }
  input {
    name: "input_1:0"
    type {
      tensor_type {
        elem_type: 1
        shape {
          dim {
            dim_param: "unk__7704"
          }
          dim {
            dim_param: "unk__7705"
          }
          dim {
            dim_param: "unk__7706"
          }
          dim {
            dim_value: 3
          }
        }
      }
    }
  }
  output {
    name: "concatenate_22/concat:0"
    type {
      tensor_type {
        elem_type: 1
        shape {
          dim {
            dim_param: "unk__7707"
          }
          dim {
            dim_param: "unk__7708"
          }
          dim {
            dim_param: "unk__7709"
          }
          dim {
            dim_value: 10
          }
        }
      }
    }
  }
}
opset_import {
  version: 12
}
